checkpoints/policy_biped_50hz.onnx (onnx, 252181 bytes, 8 tensors)

actor.0.weight f4 [256, 45]
000000 48 e1 87 3d bf 42 cd 3f a0 fb f3 be 9e 4f b7 3d
       0.06634766 1.6035994 -0.47652912 0.08950733
000010 d2 01 71 3b 24 07 64 be be 7c b1 bf 32 b9 00 40
       0.0036774767 -0.22268349 -1.3866193 2.0113034
000020 d7 6d 07 3f f8 ca cc bf f4 7b 96 bf 5c a4 49 3e
       0.5290198 -1.5999441 -1.1756577 0.19691604
000030 c7 d2 0f be d4 03 29 bf 00 2e 2e 3e 1b dc 7b bf
       -0.14045249 -0.66021466 0.17009735 -0.9838273
000040 7c a9 e7 3d 05 04 d1 bf ec e7 3f bf fa fb 41 3e
       0.113116235 -1.6329352 -0.7496326 0.18943778
000050 49 d9 ce 3e eb f8 82 3d ca e9 2a 3d c0 86 40 3d
       0.4040015 0.063951336 0.041726865 0.047003508
000060 0b af 4a be b7 0c e5 bd 3f 52 ca bc 05 89 04 3e
       -0.19793336 -0.11184066 -0.024697421 0.12942894
000070 63 ff ca 3d 62 55 8f bd 5f 8c 1a be b1 0b d0 bd
       0.099119924 -0.06998707 -0.1509261 -0.1015848
000080 e0 7e 80 3c f5 fa 21 be 63 39 58 3e 4f 85 61 3d
       0.015685499 -0.15818389 0.21115641 0.055058774
000090 dc ce b3 bc da b5 8c 3b 28 18 1a be 21 9f ae 3d
       -0.021949224 0.0042941393 -0.15048277 0.08526445
0000a0 e3 ef 66 3d c3 45 48 3e 98 ac 45 3d 97 cf 44 be
       0.056381118 0.19557862 0.0482603 -0.19219814
0000b0 df 7c b1 bc d7 39 a5 3e 72 bb b0 3f f8 c8 4e 3e
       -0.021665988 0.3227069 1.3807204 0.20193851
0000c0 5e 79 d1 3d 4c 37 a7 3e 1b 90 0f 3e a3 46 05 40
       0.10228227 0.32659376 0.14019816 2.0824363
0000d0 df 8c de 3f 1f 8f 16 3f 50 97 c1 be b9 aa b3 bf
       1.738674 0.58812135 -0.37810755 -1.4036475
0000e0 f7 13 86 bf 3b be 3f 3d 9b 47 27 bf 04 b2 ba bf
       -1.0474843 0.046812277 -0.65343636 -1.4585576
0000f0 86 0d 04 be 63 4c d1 3e 2a 25 8f 3f 70 aa fe 3d
       -0.12895784 0.4087859 1.1183217 0.12434852
000100 3a c5 64 bf 1f d6 ad bf ed 6e 05 3e 63 85 00 3e
       -0.89363444 -1.358097 0.13030596 0.12550883
000110 b2 63 2a 3e be 97 e6 3c cc 5f 95 3c 3d 16 c4 3d
       0.16639593 0.028148528 0.018234156 0.09574554
000120 b2 31 a0 be 05 87 f9 bc f8 bd 7b bd b9 25 84 3d
       -0.31287915 -0.03045989 -0.061460465 0.064525075
000130 25 18 84 bd cd 95 87 3d 81 80 ee 3d 80 37 04 3e
       -0.06449918 0.06620369 0.11645604 0.12911797
000140 27 d4 88 3e bb 01 0f bd 67 cc 90 bd fb 0e d5 3d
       0.2672436 -0.03491376 -0.07070237 0.10403248
000150 95 89 c1 3d 15 63 90 3d fc 5e 90 3d 9d 9d 85 bd
       0.0945007 0.070501484 0.07049367 -0.06524203
000160 51 28 d4 3d 53 3d a0 bc bd d3 46 3f d0 a6 08 40
       0.10359252 -0.019560492 0.77666837 2.1351814
000170 bc 21 70 be 12 6f 6d 3e 5b 9e a0 be b2 73 5d 3e
       -0.23450369 0.23186901 -0.31370816 0.21626166
000180 35 26 f4 3f d5 15 1c 3f de 1a 3d be 87 c5 f8 3e
       1.907416 0.60970813 -0.1846728 0.485882
000190 90 01 6c bf 3c 30 4c 3f f9 88 da be 53 f3 dd 3d
       -0.92189884 0.797611 -0.42682627 0.10837426
0001a0 2a 3f 92 bf fb 7b 24 bf 74 8d 26 bf 93 e3 3d 3f
       -1.1425526 -0.6425168 -0.6505959 0.74175376
0001b0 bf 5d 67 3e fa d5 d5 3e 39 7d a7 bf b3 4d b1 3d
       0.22594355 0.41764814 -1.308509 0.08657398
0001c0 06 e7 3e bd 66 22 c5 bd 5a 49 3f bd b5 06 2b bd
       -0.04660704 -0.096257016 -0.046700813 -0.041754443
0001d0 e4 15 82 3c 20 a2 87 bc c2 60 26 3d 1e ad 6a bd
       0.015879579 -0.0165568 0.04061962 -0.057294004
0001e0 14 46 ec bd d4 9f 54 bb be 0e 3e be 34 7f 1a be
       -0.11536804 -0.0032443898 -0.18560311 -0.15087587
0001f0 99 95 2a be cb 51 11 be 23 ba 46 3c ee b0 11 bd
       -0.1665863 -0.14191358 0.012129339 -0.035569124
000200 95 16 dd 3d a0 02 13 be fd be 46 bd 9c 23 ff bc
       0.10795323 -0.1435647 -0.048521984 -0.03114491
000210 5e a4 d8 3c 25 de d9 bd 5a 9f 5d be 5f 8d a4 be
       0.026445564 -0.10638074 -0.21642819 -0.32139108
000220 5d 9a cc 3e f2 12 b5 be c7 20 d2 be 44 70 8d be
       0.3996152 -0.35366017 -0.41040632 -0.27624714
000230 60 a5 18 3f 09 fc 0f c0 b6 6f a3 3f 53 4d 8c 3e
       0.5962734 -2.249758 1.2768466 0.27402744
000240 dd 4e 5b bf 53 d7 aa bd 7f 1c d8 bd ad de 9f 3e
       -0.8566721 -0.08341851 -0.1055231 0.31224576
000250 a9 b1 09 bf 80 9a 94 bf 58 f6 da bf e9 89 09 bf
       -0.5378671 -1.160965 -1.7106428 -0.5372606
000260 3a eb 09 3f 81 fd f0 be d9 c3 3e be 72 87 c6 3e
       0.5387455 -0.47068408 -0.18629397 0.38775212
000270 4c db 88 bd 9e 60 95 bd ba 07 1f bd 5b 73 e4 bd
       -0.066824526 -0.07293819 -0.038825728 -0.11154815
000280 54 84 fc bd 71 de a0 bd a7 17 ed 3d 8e 89 b3 3c
       -0.12329927 -0.07854927 0.11576777 0.021916177
000290 ed be 20 3d c1 f8 a4 3d b8 3f ef 3c 75 29 cd 3d
       0.03924458 0.080552585 0.029205188 0.10017673
0002a0 8f 4b 3b 3a 8a f2 ba be 43 33 24 be 19 78 be bd
       0.0007144743 -0.36513168 -0.1603518 -0.093002506
0002b0 5e 49 4f be 96 57 f6 3d 28 ea e9 3d d8 7e 0a 3d
       -0.20242831 0.120284244 0.11421615 0.033812374
0002c0 8f 6f 68 be e1 3e fa bc 23 69 70 3d ff 92 ff bd
       -0.22698806 -0.030547561 0.058694016 -0.12479209
0002d0 1a 43 77 3e cf 73 59 bf 7e b4 3a be ac 0f 1d 3e
       0.24146691 -0.84942335 -0.18232915 0.1533801
0002e0 3c 0d 91 3c fb 69 fd be d3 62 e6 bf a0 60 28 bf
       0.017706506 -0.4949492 -1.7998909 -0.6577244
0002f0 46 02 c7 3e 9b 6e 01 40 c3 3c 15 3e e4 01 0c 3f
       0.38868922 2.0223758 0.1457396 0.54690385
000300 90 e1 9f bf 47 84 66 3f d3 96 29 bf fe 31 a6 bf
       -1.2490711 0.9004559 -0.66245764 -1.2984006
000310 77 a6 32 3f 5e ce e0 be ad a1 ba 3e 45 ce 26 3f
       0.69785255 -0.43907446 0.36451474 0.6515849
000320 a1 6d cd bf 6a bd e3 3d fc bc 1c bc 27 78 cc bd
       -1.6049081 0.11120112 -0.009566542 -0.09983855
000330 b8 6b 92 3d 0e 26 3e 3e 98 ba 7c 3d d6 3a c7 3d
       0.07149452 0.18569204 0.061701387 0.09728019
000340 d2 1b 0a 3e db 11 1c 3e c0 9a 47 bc 98 95 88 3c
       0.13487175 0.15241186 -0.012182891 0.016672894
000350 ca 81 04 3e 8b 8d 3a 3d f9 b8 8a bc 28 06 c3 3c
       0.12940136 0.045545142 -0.016933905 0.023806646
000360 75 1c b0 bd 1e fb 78 be ab 4b af bd 9d 1d 1a 3e
       -0.08599178 -0.24314544 -0.085593544 0.15050359
000370 0d 11 42 3d 2d 32 af 3d 68 23 ba bd 58 5c 41 3e
       0.047379542 0.08554492 -0.090887845 0.18882883
000380 79 3e e6 3d 93 d2 e8 bf 70 d6 e3 3f 0d de 98 3e
       0.112423845 -1.8189262 1.7799816 0.2985691
000390 ab ce 06 3f c6 f5 21 3f 17 69 8c 3d 83 8f c0 3f
       0.526591 0.63265646 0.06855982 1.5043796
0003a0 3f 36 2e c0 ba 01 90 3e ad 13 a6 3e 48 a3 3b 3e
       -2.722061 0.28126317 0.32436886 0.18324006
0003b0 6d 38 c6 3e 7a 39 8b be c8 26 98 be c5 ab 26 be
       0.38714924 -0.2719229 -0.29717088 -0.16276462
0003c0 b2 b6 c7 3e ca 31 89 bf 06 e8 0e be 74 4f 37 3f
       0.39006573 -1.071832 -0.13955697 0.7160561
0003d0 c2 76 83 bd 17 57 29 3f d2 e3 14 3d 21 fe f7 bd
       -0.06419136 0.66148514 0.03635008 -0.12109018
0003e0 31 ca fc 3d e9 dc f4 bd d4 99 29 be e3 ec c1 bc
       0.123432525 -0.11956198 -0.16562587 -0.023672527
0003f0 2e 39 5e 3d e2 6d ec bc d4 fe dc bb c2 4a 1c 3c
       0.05425375 -0.02886099 -0.006744245 0.009539308

actor.0.bias f4 [256]
000000 f8 23 e4 be 67 32 f9 be a5 9d 22 3e e7 7a c8 be
       -0.44558692 -0.48671266 0.15880449 -0.39156267
000010 94 df 20 bf 31 40 af bd a6 db 9c bd a6 64 8a bc
       -0.62841153 -0.085571654 -0.07659082 -0.016893696
000020 76 d7 9d be 15 2e 1c bf 36 38 0c 3e c8 7a e7 be
       -0.30828446 -0.61007816 0.13693318 -0.45210862
000030 a8 72 37 bf 8b 38 5d 3e d0 91 84 be 6f 5e c2 be
       -0.71659327 0.216036 -0.25892496 -0.37962672
000040 e1 a2 58 3e 12 8d b9 be 3f cb c3 be 4c e4 ca 3d
       0.21155883 -0.3624044 -0.38241002 0.099068254
000050 64 fb e6 bd 59 ed f1 3c 86 61 7a be c7 08 63 be
       -0.11278418 0.029532121 -0.24451265 -0.22171317
000060 d7 4d 27 bf 24 02 10 3e 0b d0 9d be 8c c0 9f be
       -0.6535315 0.14063317 -0.30822787 -0.3120159
000070 6c c0 e1 be 3d 48 ce bd 44 ee 80 be c2 76 8c be
       -0.4409212 -0.10072372 -0.25181782 -0.27434355
000080 5c bf aa 3e 96 ba a1 3e 35 3d 02 be e4 7b bc bd
       0.3334912 0.31587666 -0.12718661 -0.09203318
000090 9a 69 51 be 8a 4b d2 be bc a0 32 bf 88 73 71 3e
       -0.2045044 -0.41073257 -0.6977651 0.23579228
0000a0 ab d5 9c bf 0d 64 e3 be 10 1b 94 be 5a 22 85 be
       -1.2252706 -0.4441227 -0.28926897 -0.2600277
0000b0 de 2a a4 be c4 7a 57 be 87 09 49 bd 35 24 02 3e
       -0.32063955 -0.21042925 -0.04908135 0.12709124
0000c0 93 04 dc be 79 e4 1c bf 80 20 a3 3d 32 0b 1c 3e
       -0.4297224 -0.6128612 0.07965183 0.15238646
0000d0 d1 00 46 bd ca c3 30 bf 65 aa 03 bf d5 60 1a bf
       -0.048340622 -0.6904875 -0.51431876 -0.60304004
0000e0 11 86 67 bf 91 ec 04 bf 31 11 c2 3c 3d a9 3a 3e
       -0.90438944 -0.5192347 0.023689838 0.18228622
0000f0 cd 42 df be c7 76 36 3c 21 34 fb bd 6d 7e b7 be
       -0.43605652 0.011136717 -0.12265802 -0.35838643
000100 c6 54 66 3e 92 06 1b bf 65 a6 a1 3e a2 5d f2 bd
       0.22493276 -0.605569 0.3157226 -0.11834265
000110 bc f7 5e bd 8b 19 4b be af 60 ad 3d b4 df f6 3d
       -0.054435477 -0.19833963 0.084657066 0.12054387
000120 2d a0 0d bf bf d3 5f bd 12 6c d5 be a3 d6 00 3e
       -0.55322534 -0.054645296 -0.41684014 0.12581877
000130 9e 04 56 be 9d 21 3a bf f5 6c 08 bf fe 5c 99 bd
       -0.20900199 -0.7270754 -0.53291255 -0.0748844
000140 92 06 f4 be 72 fa 33 3e 52 e2 42 bf fb 50 50 be
       -0.47661263 0.17576006 -0.7612659 -0.20343392
000150 04 9a 15 bf 06 8e e0 3b 88 fd 44 bf 4e d0 54 bf
       -0.58438134 0.006852868 -0.7694936 -0.8313035
000160 2a 65 fc bd 48 a9 ce be f8 74 de be fa f9 66 3e
       -0.12323983 -0.40363526 -0.43448615 0.22556296
000170 7a 4e 1e bf fb f4 74 3e 1c 34 b6 bd 5c dc ce be
       -0.61838496 0.23921578 -0.08896658 -0.40402496
000180 a0 ae 89 bd b4 89 cb be 0c 47 18 bf 51 97 0f be
       -0.0672276 -0.39753497 -0.5948341 -0.14022566
000190 91 82 ad 3d 7c 52 c2 be c4 93 b4 be 4e a1 45 3c
       0.08472169 -0.37953556 -0.35268986 0.012062384
0001a0 21 b0 07 3c c2 e6 b0 be 53 f0 ec be 1b 2f cc be
       0.0082817385 -0.34551054 -0.46277103 -0.3987969
0001b0 8c d8 c6 be 9b 34 04 3c 7b 03 a9 bd 17 60 31 bf
       -0.38837087 0.008069183 -0.08252617 -0.69287246
0001c0 36 30 4d bf 68 e0 9c 3d 9f 83 ad 3e 87 f8 25 be
       -0.8015169 0.076599896 0.3388948 -0.16208087
0001d0 94 6f fc be f3 a6 18 be 7a 79 27 3e 34 fe b5 bc
       -0.49303877 -0.14907436 0.16354933 -0.02221594
0001e0 eb 43 ed be c6 47 0f be 70 c2 0d bf 65 59 07 bf
       -0.4634088 -0.13992223 -0.55374813 -0.5287078
0001f0 2b c5 fe be 82 34 b2 3d 20 4e 9c 3e 10 3f a5 bd
       -0.49759802 0.08701421 0.30528355 -0.08068669
000200 ca db bf be 39 76 0d be 99 2b 24 3e 6f 99 6d bf
       -0.37472373 -0.1381463 0.16032256 -0.92812246
000210 97 30 0d bf 2e 00 4d be 05 bf cd bd 63 d3 d7 39
       -0.5515227 -0.200196 -0.100462 0.0004116549
000220 5c 01 b7 be f4 da 2e bf 40 a2 8b 3d cf 3a 9f be
       -0.35743225 -0.68302846 0.06818056 -0.31099555
000230 55 07 c2 3e ab 3b 09 bf 59 f6 09 3d 35 4d ba be
       0.3789622 -0.5360667 0.0336822 -0.3638703
000240 22 92 07 be 14 23 b0 be 8a 68 16 be 26 5e 99 be
       -0.13239339 -0.34401762 -0.14688316 -0.29954642
000250 f6 30 ae be 14 6e 0b be 39 d9 9e be 13 f9 36 be
       -0.3402173 -0.1361621 -0.31025103 -0.17868452
000260 b7 dd 16 3e 26 29 ba be 64 80 c5 bd 58 2a e6 be
       0.14733015 -0.3635952 -0.09643629 -0.4495418
000270 ef 06 0a bf a4 c5 d3 be 97 d4 12 bf c0 62 70 3b
       -0.5391683 -0.41361725 -0.57355636 0.0036679953
000280 92 65 09 be da 35 4a bf 91 f4 2a 3e f7 c8 77 3d
       -0.13417652 -0.7898842 0.16694857 0.06049439
000290 b0 4f a2 3e 77 28 b3 be c3 7b 2b 3e 2f 44 c2 be
       0.31701422 -0.3499181 0.1674643 -0.37942645
0002a0 b0 14 03 bf a4 fc 16 be 41 19 0d 3e 14 3a 57 bf
       -0.5120344 -0.14744812 0.13779165 -0.84072995
0002b0 e8 eb 39 be be 5d 9b 3e 66 76 55 bd 2e 82 b0 3e
       -0.18156397 0.30344957 -0.052114867 0.3447432
0002c0 d7 71 87 bd c4 20 b5 be a3 b2 de be be de 83 be
       -0.0661351 -0.3537656 -0.43495664 -0.25755876
0002d0 d4 1f b0 be 8f 0a b6 be 97 95 a8 be 3d da 21 bd
       -0.34399283 -0.3555493 -0.32926628 -0.03951477
0002e0 84 6e 1c 3e d9 46 ab 3d 54 ca df be e6 c0 cc 3c
       0.15276533 0.083631225 -0.43709052 0.024994325
0002f0 f3 6e 92 3c 2b 67 6e bf f9 09 ca 3d b7 48 48 bd
       0.01787517 -0.9312617 0.098651834 -0.04889747
000300 f8 ed f2 be 34 08 35 3e 35 65 f1 bc 82 7a 14 be
       -0.4744718 0.1767891 -0.029467205 -0.14499858
000310 eb f3 a0 be 20 47 d3 bd a0 2c 6d bd 46 28 33 bc
       -0.31436095 -0.103163004 -0.057903886 -0.010934895
000320 ca 6b 01 be 64 55 3d be a5 d7 d9 bd 29 67 7f be
       -0.12638775 -0.18489605 -0.10636834 -0.24941696
000330 de 79 03 be 3d 3a 04 be f5 21 86 3c 14 08 ac be
       -0.12839457 -0.12912841 0.016373614 -0.33599913
000340 db 49 de 3e 66 05 25 be e2 d7 c5 3c 14 52 6c 3d
       0.43415722 -0.1611534 0.024150793 0.057695463
000350 39 c5 42 bf 67 ff aa 3e 1b 62 90 3d e1 43 0c 3f
       -0.7608219 0.33397982 0.07049962 0.54791075
000360 4a bf 3e be 09 3b 3d be 58 34 5e 3e 0f fb 81 be
       -0.18627658 -0.18479551 0.21699655 -0.25386855
000370 cf f9 51 3e f1 80 7b be ca 11 08 bf c9 3e 09 3e
       0.2050545 -0.24560906 -0.53152144 0.13402857
000380 5d 0c 6c be 33 3e cd bb c1 8b 2b 3e fe 3c 8e 3e
       -0.23051591 -0.0062635182 0.1675253 0.27780908
000390 bc 1c 49 be be ad b7 be 63 58 01 be e8 d0 98 bc
       -0.19639868 -0.35874742 -0.12631373 -0.018654302
0003a0 e4 c5 21 bf ef b7 9d 3b af d7 bf be e0 bc a4 be
       -0.6319258 0.0048131864 -0.3746924 -0.3217535
0003b0 84 28 b8 3d e7 d3 f7 be a2 d1 0b bd 73 bc d5 be
       0.08992103 -0.48403856 -0.03413547 -0.41745338
0003c0 2d 42 39 3d b2 c1 96 bf 5f 82 86 bc 38 c8 20 3e
       0.045229126 -1.1777861 -0.016419588 0.15701377
0003d0 24 55 82 be 15 9b 70 be 4c 80 13 bd 30 0e ab bd
       -0.25455582 -0.23496659 -0.036011025 -0.083523154
0003e0 eb f5 6a be a5 d8 9d be 09 58 28 be da 2f 1c bf
       -0.22945373 -0.3082935 -0.16439833 -0.61010516
0003f0 16 09 78 3e e0 72 e9 be de ce 04 bf 15 ac 11 3e
       0.24222216 -0.45595455 -0.51878154 0.142258

actor.2.weight f4 [128, 256]
000000 3c 97 c0 3e 21 7b 19 bd 29 20 a0 bd d3 49 9d be
       0.37615383 -0.03747094 -0.07818634 -0.30720386
000010 53 b7 35 3e a0 a8 28 3e 8f ed b9 3d 59 2f 80 bd
       0.17745714 0.16470575 0.09078514 -0.06259031
000020 bb 7e 19 3d 79 bd a9 bd 69 29 56 be 55 36 02 bf
       0.037474375 -0.08288092 -0.20914234 -0.50864154
000030 80 4d 63 be 3d fd 6e bd 4a ce 09 3e c1 fa 90 3c
       -0.22197533 -0.058346976 0.134576 0.017697694
000040 87 e2 29 3e f2 e3 5e 3e aa 4d 55 3e be 1d 49 be
       0.1659032 0.21766642 0.20830408 -0.19640252
000050 cd 26 dc bd b3 f6 44 bd 8f 76 3a be b1 ef e9 bd
       -0.10749588 -0.048086833 -0.18209289 -0.11422671
000060 fd f7 d4 bd ec e6 79 be 44 aa d2 3e 18 44 77 3d
       -0.103988625 -0.24404496 0.41145527 0.060367674
000070 8e 65 c6 bd a3 00 15 3e 36 97 d1 bd d9 5c 7f 3d
       -0.09687339 0.14551024 -0.10233919 0.062344406
000080 38 cf 55 be 2f 30 84 bc b3 32 c4 bc 4e 71 3d be
       -0.20879829 -0.016136257 -0.023949957 -0.18500254
000090 62 a0 1b 3e 7d 9e 2d bc 63 64 f5 bd 72 15 b5 bd
       0.151979 -0.010596869 -0.11982038 -0.08841981
0000a0 8f 94 0e 3d 4b f0 2f be 41 f8 00 be d9 0d 53 bd
       0.034809645 -0.17181508 -0.12594701 -0.051526878
0000b0 7a 5a f6 be 02 d0 53 be d3 60 4b be 63 a2 16 bc
       -0.48115903 -0.20684817 -0.19861154 -0.009193989
0000c0 f2 84 ec bc 67 7e 2e 3e 0c 9f c2 bd df e1 83 be
       -0.028871987 0.17040406 -0.09502992 -0.25758263
0000d0 85 97 65 3d 91 52 a0 3e 1f d4 98 3d 99 53 70 bc
       0.056052703 0.31312993 0.07462334 -0.014668369
0000e0 c3 c3 f1 3e 49 b0 8f bd 9a d8 0c bd 15 2e a0 3d
       0.47219667 -0.070160456 -0.034386255 0.078212894
0000f0 07 8e e0 bd c9 26 9b be f6 e6 30 3e 51 08 13 bc
       -0.109645896 -0.30303028 0.17275605 -0.008974151
000100 87 c2 61 3e 91 f2 9c bd fc bb 9c be c9 a0 be bd
       0.22046863 -0.07663453 -0.3061217 -0.09308011
000110 38 f9 76 bd 29 a4 94 bd 08 9a 2c bd a1 c8 77 be
       -0.060296267 -0.072578736 -0.042139083 -0.24197628
000120 5b 87 0c 3e 26 fb 08 be d4 eb 87 bd 73 f5 1d be
       0.13723509 -0.13377056 -0.066367775 -0.15425663
000130 e4 02 44 be b2 4e 8d 3d d8 0a 1b 3e 03 a2 c1 be
       -0.19141728 0.068997756 0.15140855 -0.37818918
000140 e4 e8 20 be ef 15 75 be f9 d2 23 3e b1 19 ae bd
       -0.1571384 -0.23934148 0.15998448 -0.08500994
000150 4e 44 2e 3e c8 7c ee 3c aa 04 a3 bc b1 10 cd 3c
       0.17018244 0.029112235 -0.019899685 0.025032373
000160 57 e8 a4 3d 00 aa 19 3e 1c c9 d8 be 8d dc 83 3d
       0.08052128 0.15006256 -0.42340934 0.06438551
000170 67 db c2 3d 4d 24 8b bd bc 6f 15 3e e0 33 1d be
       0.09514504 -0.06794033 0.14593405 -0.1535182
000180 97 f7 c9 be ff 66 92 be 42 d3 8b 3d 9c 48 a5 be
       -0.3944671 -0.28594205 0.068274036 -0.3228196
000190 8d 5c cc 3e a3 47 bf 3d ff 59 32 bd 8e 76 2a bd
       0.3991436 0.093398355 -0.04354286 -0.04161697
0001a0 24 2d db bd c7 9b c0 3c 65 4e 91 bd 27 7b 18 3e
       -0.10701969 0.02351178 -0.07095031 0.14890729
0001b0 51 85 51 3d 41 5f 49 3d b1 c1 7b 3e ff 19 59 3e
       0.05115253 0.049163107 0.24585606 0.21201323
0001c0 89 0a cd bb 81 8a 67 be 16 ba 2e be 5f 70 7c be
       -0.0062573594 -0.22611429 -0.17063174 -0.24652241
0001d0 82 f8 fa 3d 84 6c 49 be f0 53 28 3e fc 8f 26 be
       0.1225443 -0.19670302 0.1643827 -0.16265863
0001e0 41 fb 86 3d 98 1e 04 bf 7a 91 9d bc 1a 39 8a 3d
       0.06590892 -0.5160918 -0.019234408 0.067491725
0001f0 17 3c 61 bd fd f0 9b bd 8e cf 33 bd bc bc 0f be
       -0.054988947 -0.07614324 -0.04389911 -0.1403684
000200 e5 37 84 3e a2 c1 51 be 98 1d 0b be ea b3 ab be
       0.25823894 -0.20484021 -0.13585508 -0.335357
000210 14 f2 2f bd 0b b5 9b be ed d7 0e 3e c9 43 35 be
       -0.042955473 -0.30411562 0.13949557 -0.17701639
000220 51 e2 0e bf 43 77 d7 bc 8d da 9e be 9d b9 0f 3d
       -0.5581408 -0.026301986 -0.31026116 0.035089124
000230 f1 ed 33 3e 35 f3 ac 3d e9 c2 a4 3d bf 46 c2 3e
       0.17571236 0.084448256 0.08044989 0.379446
000240 7c 4b 56 bd a1 2d 42 3d 31 0a 62 be 61 ba 00 bf
       -0.05231808 0.047406796 -0.220742 -0.5028439
000250 8d fc 73 3e 55 e1 6e 3e 1b 7b 0c bf 4b 4d 12 3e
       0.23826809 0.23328145 -0.54875344 0.14287297
000260 ef a2 4c be 55 42 a5 3e c7 ad 97 bd 50 a7 49 3c
       -0.19984029 0.3227717 -0.07406192 0.012307957
000270 26 39 30 3e 08 37 d8 bd e9 54 dd 3d ce f5 30 3e
       0.172093 -0.105573714 0.10807211 0.17281267
000280 e8 26 8d 3d ff cf 45 3c 4e 6e f6 bd bb 26 cb bb
       0.068921864 0.012073516 -0.12032758 -0.0061996854
000290 00 23 3c be 27 b6 05 3e 5e 91 05 3e aa bd 16 3e
       -0.18372726 0.13057767 0.13043734 0.14720789
0002a0 3d 3c 48 3e 7d 66 7c 3d 34 04 1d be d4 4e 25 3e
       0.19554229 0.061621178 -0.15333635 0.16143352
0002b0 a6 a5 49 bd 43 a3 a1 3c 19 a2 5c be 45 6e 1d 3c
       -0.04923024 0.01973117 -0.2154621 0.00960881
0002c0 0d c1 00 3b 2c 8f 07 38 be db e3 3d 12 9e 0a bf
       0.0019646317 3.2319847e-05 0.11125897 -0.54147446
0002d0 08 8f 97 be bf 88 bc 3d 3b 33 48 3d a2 1d 08 3e
       -0.29601312 0.0920577 0.048876982 0.13292554
0002e0 22 7c ff 3a 88 f8 47 bf b7 a0 89 be 1e f3 3b 3e
       0.001949195 -0.78113604 -0.26880428 0.1835446
0002f0 fb b0 94 bd 15 e7 04 3f 49 cd d8 3c e3 73 2d 3e
       -0.07260319 0.51915103 0.026465075 0.16938739
000300 a9 ea a8 be 2f 32 1d 3e d7 11 67 bd 09 c5 4b bd
       -0.32991531 0.15351175 -0.056413498 -0.049748454
000310 8c 24 75 be 7e 69 af bd 97 8c a7 be cd 18 9f be
       -0.23939723 -0.08565043 -0.3272445 -0.3107361
000320 65 96 d6 3c 60 33 9f bd 5b ab a6 3d 39 74 a4 3d
       0.02619476 -0.07773471 0.08138152 0.0802998
000330 a6 e1 79 bd d0 33 f6 be 2a bb 14 be 32 6d a0 be
       -0.06100621 -0.48086405 -0.14524522 -0.3133331
000340 86 09 10 3e b3 f0 50 3c a7 ad 33 bd 77 69 56 bd
       0.14066133 0.0127527 -0.04386678 -0.052346673
000350 e2 b7 d4 bd 15 0c fc bd 54 0f 61 be d8 f0 48 be
       -0.10386635 -0.12306992 -0.21978503 -0.19623125
000360 99 78 15 bd 48 83 c2 bd 66 a6 1b 3d 8d c6 98 be
       -0.036491964 -0.09497696 0.038000487 -0.29838982
000370 8c 89 a8 bd c2 0e 06 be f7 25 64 be 38 b2 2a 3e
       -0.0822936 -0.13091567 -0.22280107 0.16669548
000380 6f 27 2b 3e 42 3e c3 bc 8c 84 93 bc 48 a0 97 3e
       0.16714261 -0.023833398 -0.01800754 0.29614472
000390 17 69 2e 3e 6e a1 5e 3d c2 6c 09 bd e7 bd 19 bd
       0.17032276 0.05435317 -0.033550985 -0.03753462
0003a0 5e 8f 87 be c2 41 0c bd 6e 8f d6 be e8 9d bb 3e
       -0.26476568 -0.0342424 -0.41906303 0.3664391
0003b0 75 d4 04 3e b4 c0 64 be f5 86 4c be d9 8e 51 be
       0.12971671 -0.22339135 -0.19973357 -0.20464648
0003c0 80 33 b4 3d 43 55 0b be c8 52 b5 bd 5f ac 19 bd
       0.08798885 -0.13606744 -0.0885368 -0.0375179
0003d0 57 74 8d 3e 21 ad b4 be 3e 36 cb bb ca 36 b7 3d
       0.27627823 -0.35288337 -0.0062015345 0.08945997
0003e0 44 98 9e 3d eb 86 60 be bc eb 4f be 64 ef b2 3e
       0.07743886 -0.21926467 -0.2030477 0.34948266
0003f0 03 fe b2 bc 07 73 b8 bc e7 f7 08 3e 7c 9b 4d bd
       -0.021849638 -0.022515787 0.13375817 -0.05019711

actor.2.bias f4 [128]
000000 bd 9e 55 be 9e 34 14 bf f9 34 b4 be 4d f7 a6 be
       -0.20861335 -0.5789279 -0.35196665 -0.3261055
000010 fd 33 40 be ef 76 7d bd 9c 91 0e be 1e 56 16 3c
       -0.18769832 -0.061881002 -0.13922733 0.009175805
000020 6a 73 3a be d1 ca d3 be be 75 a4 bd 97 7c 5d be
       -0.1820809 -0.41365674 -0.0803027 -0.21629559
000030 6c ef 83 be b1 d5 22 be 88 c2 41 be bb 5b 0e bf
       -0.25768602 -0.1590183 -0.18921864 -0.5560872
000040 a9 23 01 3e c3 78 89 be e9 7a e8 be 0a 6d 4b 3d
       0.1261126 -0.26849946 -0.45406273 0.049664535
000050 81 d5 87 bf ca 96 0a 3d 0b 84 5c be fb a5 31 bf
       -1.0612031 0.03383521 -0.21534745 -0.6939389
000060 3a 91 96 be b5 88 97 bd 86 e4 c3 be 7e 9c b2 be
       -0.29407674 -0.07399122 -0.38260287 -0.3488502
000070 67 94 2a be 60 61 92 be 1f bc 67 bf 1a a9 a6 be
       -0.16658174 -0.28589916 -0.90521425 -0.3255089
000080 47 d8 fc be 21 04 ae be cf 44 6a be e6 e2 7d be
       -0.49383757 -0.33987525 -0.22877811 -0.24793586
000090 56 aa 4a be a8 b1 82 be 3e 7e b1 be 16 0a 53 be
       -0.1979154 -0.25526166 -0.34666628 -0.20609316
0000a0 b2 3b b1 be f2 78 39 bd 8f 1b 37 bf c7 8e a3 be
       -0.34615856 -0.045281358 -0.71526426 -0.31944868
0000b0 0b d6 eb bd 3e ab 5c 3e 7b c7 c1 be bf 66 e6 be
       -0.11515435 0.21549699 -0.37847504 -0.45000264
0000c0 9e 3b 83 be 7f 99 01 bf 34 dc 6c be 50 2b 52 be
       -0.25631422 -0.5062484 -0.23130876 -0.20524335
0000d0 fc 0c 73 be dc 25 01 bf ae 37 f8 be 6e d6 94 be
       -0.23735422 -0.50448394 -0.4847998 -0.29069847
0000e0 1e 31 83 be 13 ad 8f be c1 5c 8a 3b e1 ac f2 bd
       -0.2562341 -0.28061733 0.004222483 -0.1184938
0000f0 05 df 43 bf 41 da c9 bd ff c2 5c be 71 cf 6f be
       -0.76512176 -0.09856082 -0.2155876 -0.23418976
000100 04 a5 ee be db 5e 83 be ed a1 66 be b0 f6 04 bf
       -0.46610272 -0.25658306 -0.22522707 -0.51938915
000110 7c a6 c9 3d cb ff aa 3c 4e 23 a8 be 1e 38 1a bd
       0.098462075 0.020873925 -0.32839435 -0.037651174
000120 b8 fa d0 be 62 31 f0 be ab a3 03 be d9 1d 9e be
       -0.40816283 -0.46912676 -0.12855403 -0.30882147
000130 4d 65 f9 bd 5b a0 df be 0b 4d 1c be 22 55 bb be
       -0.12177525 -0.4367703 -0.15263765 -0.3658839
000140 3e e4 5e be fe 70 a3 be 12 c1 19 bf 77 63 cb be
       -0.21766755 -0.31922144 -0.60060227 -0.39724323
000150 4a 75 d1 bd 87 d9 2d be f6 33 e6 bd ed bf c4 bd
       -0.10227449 -0.16977511 -0.112403795 -0.096069194
000160 3b 39 d3 be 52 18 05 be 32 84 09 bf 17 3a 89 be
       -0.412546 -0.12997559 -0.5371734 -0.26802132
000170 bb e7 91 be 62 7b 40 be d1 cd 87 be ad 00 f0 bd
       -0.2849711 -0.18797067 -0.26524213 -0.11718879
000180 a0 07 7b 3d 4a 33 64 bf df 1d 18 bf b8 9c 0a 3b
       0.06128657 -0.8914076 -0.5942058 0.002115054
000190 b6 ed e8 be 81 36 5b bf 52 c3 30 be 80 62 8c bd
       -0.4549386 -0.8563004 -0.17262009 -0.06854725
0001a0 06 5a e4 be ff 3f 1e bf 98 e5 aa 3d 7a c3 0c 3e
       -0.44599932 -0.618164 0.08344573 0.13746443
0001b0 f0 fb cd be e3 08 31 be 09 31 f6 be 44 86 88 be
       -0.40231276 -0.17288546 -0.48084286 -0.26664937
0001c0 ac 9b 77 be 39 d9 b3 be ee f6 99 be b9 99 06 bf
       -0.24180478 -0.35126665 -0.30071205 -0.5257831
0001d0 39 72 b3 be 09 0d 94 3d 0c 0a 52 3d a6 34 c0 be
       -0.35048082 0.07229049 0.051279113 -0.37540168
0001e0 70 72 fd bd 80 3d 61 be f5 ac 17 bf fa 14 e2 be
       -0.12375343 -0.21996117 -0.59248286 -0.4415663
0001f0 b7 c3 1f be d5 ec a6 be c8 7c 4b bd f1 f4 9f be
       -0.15602003 -0.32602564 -0.049679548 -0.31241563

actor.4.weight f4 [128, 128]
000000 f8 42 30 bd 94 30 d8 3d af 83 4e bd a4 1f 46 be
       -0.043032616 0.105561405 -0.050418552 -0.19348007
000010 a8 e0 d0 3d 24 bf 3f 3d ed ae 25 3c 7a 58 c2 3d
       0.101991 0.046813145 0.010112506 0.09489532
000020 5f 60 22 3e f4 19 2c bd a2 ff a1 3d 90 4a 5a be
       0.15857075 -0.04201694 0.07910086 -0.21317506
000030 34 e7 8c 3e 44 df 03 be c7 92 58 3e 92 53 48 3e
       0.27520144 -0.12878138 0.21149741 0.1956313
000040 5d 92 8d bd 21 b4 84 bc 59 6d 0b 3e 63 75 ab be
       -0.06912682 -0.016199173 0.13615932 -0.33487996
000050 cd 33 b5 3e 5a bf 96 3d 99 9c bc bd 6a 02 07 3f
       0.35391083 0.07360716 -0.09209556 0.5273806
000060 61 23 3f bc 9d 90 5e be 6b 0e 16 3e e4 9e 5b 3e
       -0.01166615 -0.21734853 0.14653938 0.2144733
000070 4f 4f 88 be 97 20 be be 94 55 6c 3e 96 f2 c5 3d
       -0.26623008 -0.3713424 0.2307952 0.0966541
000080 ec ad 1e 3e e0 5f 42 bd 50 ee 72 3d 44 03 97 3e
       0.15496033 -0.047454715 0.059309304 0.2949468
000090 2e ce 5b 3e 0d 69 88 be 34 19 f8 3b b1 7e f4 3d
       0.2146537 -0.26642647 0.007571364 0.11938227
0000a0 d2 4c fd 3d e0 55 8d bd 34 c0 73 3e f5 ec e6 3d
       0.12368168 -0.06901145 0.23803788 0.11275665
0000b0 44 3f 26 bd ce 6b 87 bd 64 41 6f 3d 88 57 ac bc
       -0.04058768 -0.06612359 0.05841197 -0.021037832
0000c0 1a bc 49 3e 4a 55 9b be cb 87 dd 3c f0 80 3c 3d
       0.19700661 -0.30338508 0.02704229 0.046021402
0000d0 13 3d cd bd 57 81 96 3d b9 c8 85 3e 65 75 dc 3d
       -0.100214146 0.07348888 0.26129702 0.10764579
0000e0 69 74 70 3e c2 db 81 3e 28 68 9a bd 88 58 56 be
       0.23481907 0.25362974 -0.075393975 -0.2093221
0000f0 3f 9f 3f 3e 74 aa ab be 83 75 bc be c2 49 47 be
       0.18713091 -0.33528483 -0.36808404 -0.1946173
000100 d4 e9 53 3e 1a dd d6 be 80 a0 0f be a5 2d 61 be
       0.20694667 -0.41965562 -0.1402607 -0.21990068
000110 4a 81 50 be 70 7d ea be f6 db a7 3e 5e 38 e9 be
       -0.2036182 -0.45798826 0.32785004 -0.45550817
000120 e0 55 9f bd 9d 6e 45 3e 33 34 d6 bd 41 0c bf 3e
       -0.07780051 0.19280477 -0.10459175 0.37314036
000130 c6 c9 94 bc e3 0e d6 3d 39 b2 a1 be 0d 31 be 3e
       -0.01816262 0.10452058 -0.31581286 0.37146798
000140 0f 37 bd 3e 1b f1 22 bd 82 56 98 3e a8 c6 8c be
       0.3695607 -0.039780717 0.297535 -0.27495313
000150 6e a4 a1 3d 96 38 d6 3e 25 c5 48 3e 1c 22 99 bc
       0.078926906 0.41840047 0.19606455 -0.018693022
000160 f3 2a 1b 3d 73 34 a3 bc 61 4a 23 3f 2c 99 53 be
       0.037882756 -0.01992247 0.6378537 -0.20663899
000170 fe 1c 4b 3d 6c 9c 87 3d 5b 6c dc bd 53 54 84 3d
       0.049588196 0.06621632 -0.10762855 0.06461396
000180 7e 12 06 bf 6a bc 98 3e d4 86 1d 3e 3d 6b 69 3d
       -0.52371967 0.2983125 0.15383464 0.056987036
000190 19 91 16 3e 0f 48 aa 3e e6 48 ac 3e e9 7c 97 3d
       0.14703788 0.332581 0.33649367 0.073968716
0001a0 8a 95 0f 3e d3 fe 01 3e 41 2f 50 bd 8e 80 9f be
       0.14021888 0.12694864 -0.050826315 -0.31152767
0001b0 89 88 c7 3e 4c 4c 62 3d 49 e0 e2 3d e4 12 8a 3e
       0.38971356 0.055248544 0.11077935 0.26967537
0001c0 48 c7 9c 3e 03 20 8c be 3c e0 ce 3e 95 92 dc 3e
       0.3062079 -0.27368173 0.40405452 0.43080583
0001d0 cd e5 e8 bc e1 37 97 bd 0e f6 98 be 0a 74 90 3e
       -0.02842989 -0.07383705 -0.29875225 0.2821353
0001e0 04 4d 73 be 59 f7 11 3d b2 ff b8 3d 0a 49 aa 39
       -0.23759848 0.03563628 0.09033145 0.00032479345
0001f0 46 51 8e 3e fc 17 26 be fc f7 30 be 6c 70 dc bd
       0.27796382 -0.16220087 -0.17282099 -0.1076363
000200 75 e7 1a 3b fd e6 41 3f 9c 64 3e 3e 7c 5a be 3e
       0.0023636494 0.75743085 0.18593067 0.3717841
000210 88 e7 80 bc 55 4a 39 bd 43 3f b5 bd 21 af ac bc
       -0.015735403 -0.045236904 -0.08849957 -0.021079602
000220 bb 36 1f 3e fa 1b fc bd 50 3c 15 3d b1 41 86 3c
       0.15548222 -0.123100236 0.03643447 0.016388746
000230 c9 9f 5f 3d 56 8a 12 3e 12 4a 05 be c8 1b 1c 3d
       0.054595742 0.14310583 -0.13016537 0.03811243
000240 13 54 f3 3c 5e d0 29 be bf 90 ef 3d b1 27 59 be
       0.029703176 -0.16583392 0.1169753 -0.21206547
000250 6e 56 2a 3e 31 74 81 be 69 99 a1 be 38 ef d5 3d
       0.16634533 -0.2528396 -0.31562355 0.10446018
000260 88 51 2a be 8e e3 07 be 2a bb 4c be cd 90 bd be
       -0.16632664 -0.13270399 -0.19993272 -0.37024537
000270 3e cd d4 be 3b da 87 3e 4f 16 2b 3e 1b 49 d6 3c
       -0.41562837 0.26533684 0.16707729 0.026157906
000280 34 7b 0a be 8a 60 fd be bf 9f aa 3e c0 6b 6c 3d
       -0.13523561 -0.49487716 0.33325002 0.057719946
000290 9a 85 2c be a8 58 a5 3d a4 93 b9 3c f7 45 d1 3d
       -0.1684784 0.080735505 0.022653408 0.10218423
0002a0 c8 1f b9 bc 07 00 89 be 7f cc 76 3e 42 bd b5 3e
       -0.022598162 -0.26757833 0.24101447 0.35495955
0002b0 af fd 93 bb 0a 66 b1 3e 8f 46 8e bd cc ba 03 3f
       -0.0045163254 0.34648162 -0.06947052 0.51456904
0002c0 3a 89 ad bd 78 a6 c9 bd 45 02 11 bd 5d 74 bf 3d
       -0.084734395 -0.098462045 -0.035402555 0.093483664
0002d0 18 96 c6 3d da 90 df 3e 7a c4 03 be 92 cc 53 3e
       0.09696597 0.436652 -0.12867919 0.20683506
0002e0 a0 dd 9c 3d 63 24 07 3e be 06 f0 bc 52 6c 8e be
       0.07659459 0.13197474 -0.02930009 -0.27817017
0002f0 4b 1d 10 3e 18 35 89 bb 9b cc 84 3c c5 13 26 be
       0.14073674 -0.0041872375 0.016210845 -0.16218479
000300 bd 87 8c bd 9b 05 b7 bb 6b ec e9 bd b3 18 b0 bd
       -0.068618275 -0.005585385 -0.11422046 -0.08598461
000310 3a 69 e5 3d 39 7b 31 bd e7 47 81 bc 35 f4 8f 3d
       0.11201711 -0.043330405 -0.015781356 0.07029001
000320 4c 58 8f 3e 71 1b e7 bd da d9 88 be e2 29 5b bd
       0.27997053 -0.11284531 -0.26728708 -0.05350674
000330 42 9a a9 be 1b 31 b7 3e 68 17 86 bd fe a1 8a be
       -0.33125502 0.35779652 -0.06547433 -0.27076715
000340 ec 25 ff 3d fc d3 68 3d 89 41 8e 3e be 12 5a 3e
       0.12458405 0.05684279 0.27784374 0.21296212
000350 01 dc 70 3d 9b 68 67 be e1 eb a0 be 79 47 9d 3b
       0.058803562 -0.22598498 -0.3142996 0.00479978
000360 f2 d1 80 3e a4 f2 a5 be 46 32 4c 3e ab 97 1b 3e
       0.25160176 -0.32411683 0.19941053 0.15194575
000370 01 52 03 3f 67 e0 d4 bc 33 5d 08 be da aa 09 3d
       0.51297003 -0.02598591 -0.13316803 0.033610202
000380 eb 2b 1c be c3 7a 6c 3e b6 66 12 bd 6c 5c af bb
       -0.15251128 0.23093705 -0.035742484 -0.0053515937
000390 f1 02 53 3e 8c 8e 5a 3e 8c 7d 0a 3e 12 be c4 bd
       0.20606591 0.2134344 0.13524455 -0.096065655
0003a0 5e 22 0c 3e 82 e1 f1 bd 05 07 42 be 0b 70 4c 3d
       0.13684985 -0.1181059 -0.1894799 0.04991154
0003b0 10 e3 4b be 36 d6 e3 bc a0 65 8c 3d 98 0c cf bd
       -0.19910836 -0.027812105 0.06855321 -0.10109824
0003c0 bc 84 32 3e 80 f2 ab 3d 75 a0 c1 3e 99 39 40 3e
       0.17433447 0.083958626 0.37817731 0.18771972
0003d0 18 1d 44 3e c9 a4 f5 bd 54 46 ec bd 21 4e 92 3d
       0.19151723 -0.11994321 -0.115368515 0.07143808
0003e0 2a a4 12 bf 00 6c 44 be 76 b7 a8 3d e7 fc 04 be
       -0.57281744 -0.19181824 0.082381174 -0.129871
0003f0 25 49 a4 3c e9 a7 94 3e a7 dd ef 3c cf 3d 7d bd
       0.02005441 0.29034355 0.029280497 -0.061826523

actor.4.bias f4 [128]
000000 6c d5 95 be 91 a9 e8 be ae 2e 90 be e5 f5 0a be
       -0.2926439 -0.4544187 -0.28160614 -0.13570364
000010 45 89 9c be e1 0d 0d 3d 8b 4a de be e4 72 0a be
       -0.30573478 0.034437064 -0.43416247 -0.1352039
000020 06 22 e0 be 69 08 04 be db 02 cd be 17 77 95 be
       -0.43775958 -0.12893833 -0.4004124 -0.2919242
000030 0d 67 12 be 80 4a 7c be 27 56 14 be f8 6e a8 be
       -0.14297123 -0.24637794 -0.1448599 -0.32897162
000040 36 35 90 be 33 6b 45 be 94 0b ef be df 32 64 be
       -0.28165597 -0.19279175 -0.4668852 -0.22285031
000050 a8 5c 30 bf a3 62 83 be 5d 19 b8 be 1e 88 72 be
       -0.6889138 -0.2566119 -0.3595685 -0.23684737
000060 82 e6 9b be 36 c9 ac be e9 b0 86 be e6 42 82 be
       -0.304493 -0.33747262 -0.26306847 -0.25441664
000070 b1 a4 66 be e4 c9 71 be 5b 5e ab be 84 17 da bd
       -0.22523762 -0.23612171 -0.33470425 -0.106490165
000080 cb 2a 3f be 31 47 c0 be 26 f2 17 bf 3a fc 95 be
       -0.18668668 -0.37554315 -0.59353864 -0.29293996
000090 1f b8 89 be fc bb ee be 48 f4 93 be d2 2c 0d bf
       -0.26898286 -0.46627796 -0.2889731 -0.55146515
0000a0 1b 55 b4 be 69 c1 89 be 33 16 d6 be e5 d3 02 bf
       -0.3522118 -0.26905373 -0.41813812 -0.51104575
0000b0 e7 99 fb be 26 ae af be f6 52 cf be 58 90 be be
       -0.49140856 -0.34312552 -0.40492982 -0.372195
0000c0 3a 81 ae be c4 e2 da be 91 74 50 be 03 e2 b2 be
       -0.34082967 -0.42751133 -0.20356967 -0.34938058
0000d0 68 d5 6e be 9d 4f be bd 9b 4a 8b be d0 eb 6f be
       -0.23323596 -0.09292529 -0.27205357 -0.23429799
0000e0 15 17 93 be 46 d3 13 bf a2 31 e5 be b8 a3 b0 be
       -0.28728548 -0.5774425 -0.4476443 -0.34499907
0000f0 14 e2 b6 be 0c 78 ae bd da 22 a5 be 1f 38 a3 be
       -0.3571936 -0.08518991 -0.32253152 -0.31878754
000100 f4 85 c2 be a9 f9 10 bd bf c5 0d be b8 ef eb be
       -0.37992823 -0.035394344 -0.13844965 -0.46081328
000110 ee 15 72 be be f7 94 be 52 26 c6 be 9a 10 9c be
       -0.23641178 -0.29095262 -0.3870111 -0.30481416
000120 c9 6c 0e be b4 6b 9f be 9d d5 46 be c1 09 f2 be
       -0.13908686 -0.31136858 -0.19417424 -0.47273067
000130 f0 2f 0c bf 5b a4 9b be 32 05 ad be f6 94 91 be
       -0.54760647 -0.3039883 -0.33793026 -0.2843396
000140 fe 30 da be 06 8f 15 be f3 5c af be 22 48 84 be
       -0.42615503 -0.1460534 -0.34250602 -0.25836283
000150 3a 71 5a be 44 7b 3e bd ae 53 8c be f2 3e 61 be
       -0.21332255 -0.046504274 -0.27407593 -0.21996668
000160 6a 5d 68 be 6f de 8c be d3 46 50 bd 1c 11 d5 be
       -0.22691885 -0.27513453 -0.050848793 -0.41614616
000170 83 56 e9 bd 4b 69 ac bd af 45 96 be 42 d2 95 be
       -0.11393454 -0.084185205 -0.2935004 -0.29261976
000180 0f 8d f3 be f9 35 5a be 5b 83 bc be 7e 83 17 be
       -0.47568557 -0.21309651 -0.36818966 -0.14796254
000190 3d 12 1e be 2c 74 f2 bd 21 ce 07 bf 9c 53 28 be
       -0.15436645 -0.11838564 -0.530489 -0.16438144
0001a0 1f ed 80 be 84 23 87 be 90 c4 8d be 80 09 74 be
       -0.2518091 -0.26394284 -0.27689028 -0.23831749
0001b0 8c 77 f7 bd 14 75 d6 be 9e 68 fc be 46 2a 3e bf
       -0.12083349 -0.418862 -0.49298567 -0.74283254
0001c0 00 9d 78 be 4d fe 71 be 72 eb 30 be 22 2e 26 be
       -0.24278641 -0.23632164 -0.17277315 -0.16228536
0001d0 58 90 27 be dd 78 43 be 4a 15 80 3d 39 99 5a be
       -0.16363657 -0.19089074 0.062540606 -0.21347512
0001e0 e0 bf 2d bf 23 33 fa be 84 61 c2 be ea d1 bc be
       -0.67870903 -0.4886714 -0.37965024 -0.36878902
0001f0 67 8e f3 bd 08 73 3d be d5 36 a8 be c9 ca 0c be
       -0.118923955 -0.18500912 -0.32854334 -0.13749231

actor.6.weight f4 [12, 128]
000000 31 95 bd bc 47 fc 4d 3d 9f 8c 58 3c 0e 30 d2 bc
       -0.02314243 0.05028942 0.01321712 -0.02565768
000010 78 be 4c 3c db 22 06 bc 71 fc b3 3b 64 4d d5 bc
       0.012496583 -0.008187021 0.00549274 -0.02603788
000020 5a fc e8 3c 5f 5f d1 3b 64 97 42 bd 56 9b 0b 3d
       0.028440643 0.006389543 -0.04750766 0.034083687
000030 6d 5d a5 3c 6f c4 28 bb b6 be cf 3c aa 61 3f 3d
       0.02018615 -0.002575185 0.025359493 0.046724
000040 d6 1d 07 bd 14 d2 00 3d d1 f5 a2 bc 4e 4b 14 bd
       -0.03298744 0.031450346 -0.019892605 -0.03620463
000050 b6 df e8 bd c1 cf 18 3c ec f8 b6 3d 6b 80 96 3d
       -0.113707945 0.009326876 0.08934197 0.073487125
000060 e2 ef e9 3a 67 96 51 3d d2 0b 3e bc 87 42 9c 3c
       0.001784798 0.051168825 -0.011599498 0.019074691
000070 5f ae 10 3d ee 98 ac 3c 77 50 f5 3c ea 97 b7 3b
       0.035322543 0.021069016 0.029945595 0.0056028264
000080 83 fa 8c bc 9d 28 dc bd f6 f5 ce 3d 59 74 29 bd
       -0.017209297 -0.10749934 0.10105507 -0.041370723
000090 a9 5e ff bc 18 ac 5a 3c 12 2f 63 3c e0 38 02 3d
       -0.031173067 0.013346694 0.013866203 0.03179252
0000a0 9f 82 07 bd ed 66 ed 3c 08 1c e4 bb 23 c9 88 bc
       -0.033083554 0.028979743 -0.0069613494 -0.016697472
0000b0 ac 34 2c bd 4a e4 19 3c 3e 59 e5 bd bb 9a 0d bc
       -0.04204242 0.009392807 -0.11198662 -0.008642848
0000c0 94 16 4c 3c c5 70 1f 3d 20 04 91 bc cc 74 51 bc
       0.012456555 0.038925905 -0.017702162 -0.012784194
0000d0 4b 32 cb bd 05 ff 38 bd 15 45 02 3d a4 1b 90 3c
       -0.09921702 -0.04516508 0.031804163 0.017591305
0000e0 39 23 82 bd 1f ea a4 bd c6 7d 68 bd b3 68 82 bc
       -0.063543744 -0.080524676 -0.056760572 -0.015919065
0000f0 43 84 8d bd 6e 0e 0e bd c6 6e 9f bc d6 47 13 3d
       -0.069099925 -0.03468173 -0.019462 0.03595718
000100 af 00 b9 3d aa 06 c3 bc f7 a9 24 bd 16 f9 5d bd
       0.090333335 -0.023806889 -0.040201154 -0.054192625
000110 ee 0d dc bb 46 18 d3 3c 01 3c d2 bd 95 6f 97 3c
       -0.0067155277 0.02576841 -0.10265351 0.018485824
000120 a5 59 0b 3d 85 a5 dc bc c8 af 82 3d 51 1c 00 bd
       0.03402104 -0.026934395 0.06381184 -0.031277005
000130 22 6f a3 3d 8f 09 f0 3b df cc 43 3d 98 c7 a7 3c
       0.07980181 0.007325358 0.047802802 0.020480916
000140 82 05 93 3b d5 9a 86 bd f9 cb 19 3c a5 33 b2 3c
       0.0044867406 -0.065725006 0.00938701 0.021753142
000150 3d e5 0f 3d 75 8b fe 3c 1a 9e 77 ba 16 14 fd 3c
       0.035130728 0.031072358 -0.0009445861 0.030893367
000160 90 d7 8a 3c 5d 76 ce bb 0a de cb bc 76 81 82 bc
       0.016948491 -0.006300731 -0.02488615 -0.015930872
000170 22 45 0d 3e 5e 10 25 3d 90 1e 02 bc 4e 38 41 bc
       0.13795903 0.040298812 -0.007941857 -0.011793209
000180 ea c2 b5 bc 57 dd d1 3b 80 5a eb bc c2 6c 9f bd
       -0.022187669 0.0064045596 -0.028729677 -0.07784416
000190 e0 50 fd 3c 99 3b aa bb 7e 43 1c bc 30 4f 45 3b
       0.030922353 -0.005195093 -0.009537576 0.0030107014
0001a0 25 cf 52 bd 62 a7 53 3d 7a e2 9d 3c 88 aa 40 bd
       -0.05146708 0.0516733 0.019273032 -0.04703763
0001b0 d9 76 81 bc 6e 1b 77 bc 5a 49 0c 3e 24 1f f5 bd
       -0.015803741 -0.015082223 0.13699856 -0.1196883
0001c0 08 c5 3c 3d 49 b3 d9 bc fd 0c 2d 3c ca 98 80 bc
       0.04608634 -0.026574748 0.010562179 -0.015697856
0001d0 c4 72 27 bd b5 c5 45 bc 32 0e 13 b9 8c b9 21 bd
       -0.040880933 -0.012071063 -0.000140243 -0.039483592
0001e0 86 86 66 3d 10 17 f5 3c d5 4b 44 bd 53 b7 13 3d
       0.056280635 0.029918224 -0.04792388 0.036063503
0001f0 2e b8 34 3d c1 1a 08 3d fa ce 2e 3d 26 c1 2d bd
       0.04412096 0.03322864 0.042677857 -0.04242053
000200 a3 a0 2f 3c 7e 3d d2 bc 1a 40 2c bd ac 47 44 3d
       0.010719451 -0.025664087 -0.04205332 0.047919914
000210 bc 27 11 3d 02 65 c8 3c 83 96 aa 3c 8a 6e f3 3b
       0.035438284 0.024462227 0.020823723 0.007428949
000220 24 67 a4 bc 2a af 9b 3c ff 08 61 3b b1 67 b8 bd
       -0.020068713 0.019004423 0.0034337637 -0.090041526
000230 4c a6 6f 3d 84 fa 32 3d 89 cf b3 bc 33 7b f0 bc
       0.058508202 0.04369594 -0.021949546 -0.029355621
000240 81 ab 6a 3d 15 f8 8f bc b4 47 af bc 0a 44 5c 3d
       0.057292465 -0.01757435 -0.021396495 0.053775825
000250 e3 6b 88 3d d1 64 53 3c dd 3e 93 bc 2b af af 3c
       0.06661203 0.0129024545 -0.017974311 0.021445831
000260 70 ff 34 bd a9 08 d5 3c 2c a2 17 3d 7c ca 2c bd
       -0.044188917 0.026005106 0.037019894 -0.04218529
000270 e9 0c 92 3d 70 d6 89 3c 60 c5 ef bb 00 49 6d bc
       0.07131369 0.016825885 -0.00731723 -0.014482737
000280 27 18 45 bc 35 c9 9f bd 16 b5 0f bd a3 8d 1d bd
       -0.012029684 -0.07802049 -0.035084806 -0.038465153
000290 a5 f2 7c bd 4d f0 a9 bc 8b f1 0f bd 6c f6 57 bc
       -0.06175484 -0.020744467 -0.035142463 -0.01318131
0002a0 ca d2 56 3d 16 b0 2f 3d 37 c5 dd bd f2 a0 b6 bc
       0.052447118 0.042892538 -0.10828631 -0.022293542
0002b0 df af 29 bd 6a 8b c1 bb a7 49 a8 bc cb 1d 33 bd
       -0.04142749 -0.005906512 -0.020542933 -0.043729585
0002c0 c4 1f 2c 3c 02 6d e1 3c 07 0e fd bc 09 15 5b bc
       0.01050562 0.0275178 -0.030890478 -0.013371714
0002d0 dc 5a 4e 3d 2c 2a 53 bd 83 71 a2 3b 1b c4 52 bd
       0.05037962 -0.05155389 0.0049573793 -0.051456552
0002e0 1b 2b ca 3c c9 79 2e bc 9b 28 cd 3c c0 72 88 3d
       0.024678757 -0.010649153 0.025043776 0.06662512
0002f0 99 58 b3 bd a1 31 36 3d 70 d2 16 3d 77 e6 9e 3c
       -0.08757133 0.044480924 0.036821783 0.019397004
000300 28 f0 7b bc 1e 63 48 bd 32 f6 4f 3c 83 25 8e bd
       -0.015377082 -0.04892265 0.012692975 -0.069407485
000310 ca 6b ab 3d c8 48 4e bc a2 5f 9a bd b1 0f ef bc
       0.083701685 -0.012590595 -0.07537772 -0.029182287
000320 9f 81 e3 3c e0 3d 9b bc 19 b6 f5 3b 92 06 12 bd
       0.02777177 -0.018950403 0.0074985144 -0.035650797
000330 cd 62 16 3d da c9 4a bc b2 ad f9 3c 05 7e 96 bd
       0.036715318 -0.012377227 0.030478332 -0.07348255
000340 b8 8a e7 bb a5 28 bd bc e1 95 34 3d a9 d5 b3 3d
       -0.007066097 -0.02309067 0.04408825 0.08780987
000350 ec 7b 32 3d 74 7a fe 3a 53 28 65 bc f4 f7 26 bc
       0.043575212 0.0019415156 -0.013986665 -0.010190953
000360 49 c0 ca bc 1a 07 73 bc 88 a3 9b 3c 3a 8c df bd
       -0.024749892 -0.014833236 0.018998876 -0.10915418
000370 4e c2 98 bd 28 54 7f 3d ef bf 3e bb 4a 81 57 bd
       -0.07458936 0.062336117 -0.00291061 -0.052613534
000380 c5 1f a1 bc 9e ba 80 3d f1 85 93 bc c6 b8 ec 3d
       -0.01966847 0.062855944 -0.018008204 0.1155868
000390 55 63 02 3d e5 ce 8a 3d af a0 00 bc 54 9b 57 3c
       0.03183301 0.06777743 -0.00785081 0.013159592
0003a0 82 ef 02 3e 74 1d 51 3d f4 b6 01 3e c2 32 03 bc
       0.12786677 0.05105348 0.12667447 -0.008007707
0003b0 d1 b3 d3 bc b8 50 a6 3b 8a 77 a5 3d 27 7f 5f be
       -0.02584258 0.0050755404 0.08079441 -0.21825849
0003c0 7c 77 90 3d e8 25 45 bc d4 30 5f bc 51 f7 01 3d
       0.0705404 -0.012032963 -0.013622481 0.03173
0003d0 b0 13 75 bd e5 23 19 bd d6 e1 06 3d b2 60 77 bd
       -0.05983323 -0.037387747 0.032930218 -0.06039495
0003e0 55 ee 2d bb e5 88 97 bc 7a 65 03 bd 64 0f 2c bd
       -0.0026539762 -0.018497894 -0.032079197 -0.042006865
0003f0 ca 57 79 3d f5 f7 d9 bb 2e 30 8e ba 23 db be 3d
       0.060874738 -0.0066518732 -0.0010848099 0.09319141

actor.6.bias f4 [12]
000000 74 f0 79 3e 0c 28 83 3e 3e bf a3 be 3f 66 13 3e
       0.24408132 0.2561649 -0.31981844 0.14394473
000010 de 6a 3d 3e c2 0f ad be 8a d3 56 be f0 ba 74 be
       0.18497798 -0.33801085 -0.20979133 -0.23899436
000020 b9 b8 9c be ba f0 c6 3d 58 a1 98 3d 87 93 7b 3e
       -0.30609682 0.09713884 0.07452649 0.24567996
