checkpoints/policy_biped_25hz_b.onnx (onnx, 252181 bytes, 8 tensors)

actor.0.weight f4 [256, 45]
000000 92 4d a4 3f a8 76 ca be f2 11 c2 3d b2 68 ba be
       1.2836173 -0.39543653 0.09476079 -0.36408
000010 97 c0 cf bd 02 82 b0 3d fa 5c c8 bd 7f 52 43 40
       -0.101441555 0.08618547 -0.09783359 3.0519102
000020 17 64 1d 3f 83 25 70 be 5e cd 32 bf 04 ce 7c 3f
       0.6148085 -0.2345181 -0.69844615 0.98751855
000030 de ce 20 3d e8 1b 27 bf 69 87 65 3e 76 f6 a4 be
       0.039259784 -0.65276957 0.22414936 -0.32219285
000040 57 56 98 3e 46 ac 61 bf a8 d3 91 bd 0a 38 55 3e
       0.29753372 -0.88153493 -0.07120448 0.20822158
000050 5c 6a 65 3f 94 50 6b bd b3 1d 45 be e1 44 bc bc
       0.89615417 -0.057449892 -0.1924961 -0.022982063
000060 1e f2 c9 bb 5f 38 c4 3a a1 63 2a bd 2d aa 03 3d
       -0.006162896 0.0014970413 -0.04159892 0.032144714
000070 26 fb 88 bc 90 32 ac bd 76 0b 86 bc 14 12 06 bd
       -0.01672132 -0.084080815 -0.016362887 -0.032732084
000080 f3 f2 8a 3c 1a 30 04 be 1a df 07 3e 2a dd a3 bd
       0.01696155 -0.12908974 0.132687 -0.08001168
000090 f5 66 32 3e a9 2b 39 bd b0 2b 6c bd 3b 93 c2 3c
       0.17422087 -0.045207653 -0.05765885 0.023751846
0000a0 63 de 1e 3d 81 cb 3d 3e 4d f2 7f 3c 60 e1 71 be
       0.038786303 0.18534662 0.015621734 -0.2362113
0000b0 17 53 ca bd 3e 76 59 3f 2f bf b2 3f bd df c0 bd
       -0.098791294 0.8494605 1.3964595 -0.09417675
0000c0 cd d9 e6 3b 59 74 15 3e 3e 9c ee bc d6 d7 b9 3f
       0.007045007 0.14595164 -0.029127236 1.4518993
0000d0 47 be 36 40 ca 82 36 3e 69 7f bd bf ff f7 40 bf
       2.8553636 0.1782333 -1.4804507 -0.7537841
0000e0 e3 8e 26 bf 97 25 a2 3e a0 0b af 3e 67 b3 e7 3e
       -0.6506178 0.31669304 0.34188557 0.4525406
0000f0 82 fe 27 be 85 90 90 bf e9 1c 0e 3f 17 41 31 3f
       -0.16405681 -1.1294104 0.55512863 0.69239944
000100 dc bf a7 be cb 39 7c bf c8 2e c7 bc 5f e6 56 bd
       -0.32763565 -0.98525685 -0.0243143 -0.052465793
000110 02 0d 29 bd 65 b6 17 3d 33 3e ef bc ca 1b a6 3d
       -0.04127217 0.03703918 -0.029204464 0.08110769
000120 69 8e e4 3d 8e 6c 06 3e 17 0e ee b9 1a ab af 3d
       0.11159975 0.13127348 -0.00045405395 0.08577557
000130 9f ee fc bc 6b 4a 8f 3b a4 c1 7e 3c e7 00 8e 3d
       -0.030875502 0.004372885 0.015549097 0.06933766
000140 15 3a 84 3e 18 af 8e 3b c5 9e 7d be 51 6d 0b be
       0.25825563 0.004354369 -0.24767597 -0.1361592
000150 9f 12 45 3e b9 65 34 be b3 59 9f 3d 36 e1 c6 bc
       0.19245385 -0.17616929 0.07780781 -0.02427731
000160 14 7c fb bc 41 4b cb bd 26 2b 72 be 57 e6 af 3f
       -0.030698813 -0.09926463 -0.23649272 1.3742169
000170 fd 38 14 be a8 e4 bb bc 47 ea dc bc b4 7a 0f be
       -0.14474864 -0.02293618 -0.02696718 -0.14011651
000180 8c cf 73 3e 6b a0 d3 bf 1a 77 1d 3e a6 a9 6a 3f
       0.23809642 -1.6533331 0.15377465 0.9166511
000190 55 46 a7 bf 3e ba a5 bf 49 2f 25 bf 3a ce 0b 3f
       -1.3068339 -1.2947462 -0.64525276 0.5461155
0001a0 fd 47 92 be 79 e3 1c bd d3 d6 44 3f 6b 98 90 3f
       -0.28570548 -0.038302872 0.76890296 1.1296514
0001b0 51 43 cd 3e de a1 11 bf 7a 54 83 3e 02 7f b6 bd
       0.4009042 -0.56887615 0.25650388 -0.089109436
0001c0 d2 b2 e8 3a 6f 4f 7c bd f7 82 e0 bc 2d 19 85 3c
       0.0017753488 -0.06159919 -0.027406199 0.016247356
0001d0 7c 69 51 3c c1 c3 14 bc ad fc ef 3d 6d b0 7b bd
       0.012781497 -0.0090798745 0.11718116 -0.06144755
0001e0 80 5f 92 3d 29 39 a2 bd a3 81 23 bd d0 89 84 3e
       0.071471214 -0.07921059 -0.039918553 0.25886393
0001f0 c4 b9 f9 3d 20 af 67 3e b2 97 fb 3d af 45 08 be
       0.12193635 0.22625399 0.12284793 -0.13307832
000200 3c d3 af 3c 84 1a 04 be a1 d0 c5 bd 4e 41 9f 3e
       0.02146303 -0.1290074 -0.096589334 0.3110451
000210 4b 7e 48 3e b9 fa 46 be 2c 1e 4f 3d 1f f5 09 3f
       0.19579427 -0.1943158 0.050565884 0.5388965
000220 3b 76 91 3f b7 30 76 be 2d b4 79 be 92 57 4a 3e
       1.1364206 -0.2404202 -0.24385138 0.19759968
000230 4d 8a 37 3e a0 a6 85 bf 94 16 97 3f 56 8d 05 3e
       0.17923851 -1.0441475 1.1803765 0.13042197
000240 2f 4d 64 be 8b 5f ca bf 08 56 3c 3e a4 fd 7a 3e
       -0.22295068 -1.5810407 0.18392193 0.24510819
000250 ab 2f 59 be 5b 95 23 bf 02 ef f4 be 03 97 ea 3f
       -0.2120959 -0.63899773 -0.47838598 1.8327335
000260 f6 5e e6 be 59 8e a6 bf 1a 90 4e 3f fe b1 9b bf
       -0.44994324 -1.3012191 0.8068863 -1.2163694
000270 30 3e 70 ba 1f 00 9a bd 6e 8b 05 3e 34 2e 36 3d
       -0.000916454 -0.07519554 0.1304147 0.044477656
000280 d6 c7 cf bd 0c 8a 1e bd 28 98 a6 3d a9 ae f3 3d
       -0.101455376 -0.03870587 0.0813449 0.11898548
000290 ad 7f fc bd 73 d0 9c 3d 1c 1e 43 3d ec 6f 86 bd
       -0.1232904 0.07656946 0.047636136 -0.06564316
0002a0 e1 9e 82 be 9e 67 90 be ae fb f9 3e eb 89 b2 3d
       -0.2551184 -0.28204054 0.4882483 0.08717712
0002b0 8c 42 10 bc 0f 7e ab 3d 72 63 78 3e 2c b9 6d 3e
       -0.0088049285 0.08373653 0.24256685 0.23215169
0002c0 37 f2 52 be 84 d3 64 be 34 d9 46 3e fc 84 01 3d
       -0.2060021 -0.22346312 0.19418794 0.031620964
0002d0 2d 3a f5 be ea ba 93 3d 06 55 48 3d 54 ee 18 3f
       -0.47895947 0.072133854 0.04890921 0.5973866
0002e0 4e b5 94 3d 46 92 c0 bd b0 8b a5 bf 5b f6 1d bf
       0.072611436 -0.094028994 -1.2933254 -0.61704034
0002f0 43 ed 50 3d 7c 28 51 3f e2 ce ac 3e 05 95 6e 3d
       0.05100752 0.817024 0.3375159 0.058247585
000300 f8 7e ad bf 6a d8 10 bf a0 8c 4e 3d 3b f1 1b be
       -1.3554373 -0.5658022 0.05042708 -0.15228741
000310 f7 58 1b 3e 3a 88 9c be ec 53 12 be f8 ab 99 3f
       0.15170656 -0.30572683 -0.14289826 1.2005606
000320 9c ad a4 be ba ca 76 3d cf b0 09 3d 6a 33 c6 bb
       -0.32163703 0.06025193 0.033615883 -0.0060486095
000330 45 a0 16 3e df fc d2 bd 46 a6 b0 3c 18 28 a6 bb
       0.14709575 -0.103021376 0.02156366 -0.0050706975
000340 18 de 1b 3d eb 1b 9b bc 16 17 8b 3c fd 4c 41 3c
       0.038053602 -0.01893421 0.016978782 0.011798141
000350 41 93 27 bd f1 c4 1f 3e 8b f5 eb 3d e6 5f 50 3d
       -0.040911917 0.15602471 0.11521443 0.050872706
000360 8b 06 09 3e 3f 14 75 3d 86 9d 62 3d b9 46 94 3c
       0.13381402 0.05983376 0.055326007 0.01810013
000370 40 cf 80 be 4b 58 99 3e fc 2c 4a be 08 b9 1f be
       -0.2515812 0.29950175 -0.19743723 -0.15597928
000380 49 60 7d 3e 52 fd d8 3e 81 42 1b bf 95 a8 56 bd
       0.24743761 0.42380768 -0.6064835 -0.052406866
000390 d9 f2 2b 3f 31 e8 9b 3e a7 d1 bf 3d c8 7c f7 3f
       0.6716743 0.30450585 0.0936616 1.9334955
0003a0 75 c6 1b c0 0e 2f e2 3e ca ef 81 be 8c b6 31 3e
       -2.4339879 0.44176525 -0.25378257 0.17354792
0003b0 4f 18 93 bf fd ed 80 bc 53 4e 04 3f 7e 96 58 be
       -1.1491793 -0.015738482 0.51682013 -0.21151158
0003c0 ad e8 66 bf 68 ba f7 bf 4b 7f bd 3f d4 fc 9c 3e
       -0.90198785 -1.9353762 1.4804472 0.30661643
0003d0 35 4d 08 bf e5 36 9f 3d 8b a6 88 3c fd e0 8a bc
       -0.5324281 0.07774142 0.016680976 -0.016952986
0003e0 54 70 8f 3d c5 a3 d0 3c a6 e5 92 bd 6c c6 a2 3b
       0.07003847 0.025468716 -0.07172708 0.0049675014
0003f0 ca c1 8f bc 68 54 4d bd 10 ca 3c bc 06 58 81 bd
       -0.01754846 -0.050129324 -0.011522785 -0.06315617

actor.0.bias f4 [256]
000000 ad 49 05 bf ef 7c b3 bd 17 fd 2b be 74 00 2e be
       -0.52065545 -0.087640636 -0.16795765 -0.1699236
000010 70 eb af be 9b e9 5e be f4 cf a4 be d9 8c b0 3c
       -0.34359312 -0.21768801 -0.32189906 0.021551536
000020 21 3c a4 be e7 92 1a bf 20 59 d2 3d ef 04 d1 be
       -0.32077125 -0.60380405 0.102709055 -0.40824077
000030 75 65 c3 be 86 43 7d 3b ee 75 8c be 9e 94 9d be
       -0.38163343 0.0038644983 -0.27433723 -0.30777448
000040 0d 2c 83 bb 1e 9f 84 bc 9d 66 de bd 6a d9 f5 3d
       -0.004003054 -0.016189154 -0.10859416 0.12004359
000050 a9 21 c1 bd aa 80 96 3e 48 0b 17 bf d9 0d 90 be
       -0.09430248 0.29395038 -0.5900159 -0.28135565
000060 8d b6 9f be 35 65 d7 3d 8b e2 06 bf 4c 97 86 3c
       -0.31193963 0.105173506 -0.5268943 0.016429566
000070 d9 8f d0 be b9 48 01 3f 20 09 8b be f0 0f fc 3d
       -0.40734747 0.5050159 -0.271554 0.12307727
000080 78 95 1f 3f ef 54 66 3e 4b f9 9f bd 1e 75 8c be
       0.62337446 0.22493337 -0.07811221 -0.27433103
000090 f2 1b 8c be b6 ed 61 be 47 a6 c4 be c1 7f 8a 3d
       -0.2736507 -0.22063336 -0.3840811 0.067626484
0000a0 ce 60 2f bf 44 85 71 be 51 4b 85 be 2c ba 4c bd
       -0.6850709 -0.23585993 -0.26034024 -0.049982235
0000b0 c7 9a f2 be 9b 86 e6 bd 95 99 f1 3d 9e ea 1b 3e
       -0.4738371 -0.11256143 0.117968716 0.15226218
0000c0 bc c0 90 be 08 8c 06 bf 93 1d 0c be 77 28 84 3d
       -0.28272045 -0.5255742 -0.13683157 0.064530306
0000d0 0e 88 d1 3d 9b 95 e4 be 5f e5 e0 be 96 30 b6 bd
       0.102310285 -0.4464539 -0.43924996 -0.08895986
0000e0 27 ed 08 bf 6c 9a d7 3c 09 f0 b3 bd 04 ed fd 3d
       -0.53486866 0.026318751 -0.087860174 0.12398723
0000f0 11 94 92 be b9 50 94 be e5 71 7e 3c 91 f6 e3 be
       -0.2862859 -0.28967836 0.015530084 -0.44524053
000100 a7 e7 e0 3c b3 e0 bb bd 3f ac 25 be 50 1e 72 be
       0.02745421 -0.09173717 -0.16178988 -0.23644376
000110 d4 5f 50 3d 77 78 16 be f5 79 3a be 72 22 a6 3e
       0.05087264 -0.14694391 -0.18210585 0.32448155
000120 59 1b b6 be 7a 43 c1 be 83 07 0b bf 44 d8 2a bd
       -0.3556774 -0.37746793 -0.54308337 -0.041710153
000130 8e a6 03 3e 0d a5 47 be 98 7b b5 bd 04 39 fc 39
       0.12856504 -0.19496556 -0.08861464 0.00048107665
000140 60 9f f2 bd 1c e7 37 3d 80 0c ee be f9 5b 86 3d
       -0.118468046 0.044898137 -0.46493912 0.06560511
000150 08 47 b9 be 61 10 bf 3d 7b 74 f5 be 61 b0 8f bf
       -0.36187005 0.09329296 -0.4794043 -1.1225702
000160 d0 0b cf bd c3 e2 c0 be d7 19 6c be 3d 87 b2 3d
       -0.10109675 -0.37673005 -0.23056732 0.08717201
000170 fb 23 71 be 7c 3b fc 3d b8 f0 d0 3d 86 01 00 bf
       -0.23548882 0.12316033 0.102021635 -0.50002325
000180 c2 20 f6 3d bb 85 76 be 0d 67 1d bf e3 87 22 be
       0.12017967 -0.24074452 -0.6148537 -0.15872149
000190 d4 bb 98 3e 12 f2 c4 be 4e 4a ab be 13 f7 91 be
       0.298308 -0.38465935 -0.33455127 -0.28508815
0001a0 b1 df c2 bd d2 5f bf be e9 43 75 be 9c 67 de be
       -0.09515322 -0.37377793 -0.23951687 -0.43438423
0001b0 af ee c8 be 85 92 91 3e 44 08 34 bd db 0f 27 bf
       -0.392446 0.28432098 -0.043953195 -0.6525857
0001c0 65 bf 14 bf 29 56 2a 3e ba 52 c5 3e 71 ae ac be
       -0.58104545 0.1663443 0.38539678 -0.33726838
0001d0 37 e1 5c be ce bb 25 3c 4f 76 0e be b9 28 02 3d
       -0.21570288 0.010115577 -0.13912319 0.031777117
0001e0 56 c1 05 bf ef aa c3 3c dc 9b 98 be ba b9 5c be
       -0.5224813 0.023885218 -0.2980641 -0.21555224
0001f0 87 af ec be c5 71 36 be 03 77 c1 3e f5 91 74 3d
       -0.46227667 -0.17816837 0.3778611 0.059709508
000200 e7 33 45 be ab 5e 08 be aa 98 81 3d 62 bf 6f be
       -0.1925808 -0.13317363 0.063279465 -0.2341285
000210 27 6b 5f be 99 9e a5 be 5e b2 d0 be ee 76 44 3e
       -0.21818219 -0.32347563 -0.40761083 0.19185993
000220 98 87 69 be 7e f1 dc be 45 88 9b bd ff a7 70 be
       -0.22805631 -0.43152994 -0.07594351 -0.23501585
000230 94 05 c7 3c 34 d2 4d be ec 3f ae bd 3d d4 1d bf
       0.024294652 -0.20099717 -0.08508286 -0.61651975
000240 13 c7 15 bf 92 e4 42 be a0 a7 48 be ea 2f db be
       -0.5850689 -0.19032505 -0.19595194 -0.42809993
000250 21 8e d2 be 45 2d 20 bf 12 c0 8f bd 5c 63 d1 bd
       -0.4112406 -0.62569076 -0.070190564 -0.102240294
000260 f4 41 0a 3d de 60 36 3e c4 28 1b be 4c 0a a6 be
       0.033754304 0.1781039 -0.1515227 -0.3242973
000270 a3 99 cf be d3 00 95 be 9c 3e e2 be 44 c4 0f bd
       -0.40546903 -0.2910219 -0.44188392 -0.035099283
000280 27 29 a1 be fd be 3b bf 2b 55 9f bc 66 fe 54 be
       -0.3147671 -0.733383 -0.019449791 -0.2080017
000290 25 f3 6c 3e ee 8c 9c 3d de 3d 34 be 00 a2 04 bf
       0.23139627 0.07644068 -0.17601725 -0.5180969
0002a0 83 c1 0d bf 1c fd f8 3e cd 42 82 3e 6b ee cc be
       -0.553734 0.48630607 0.2544159 -0.40025648
0002b0 6f 45 24 be 9f 31 02 3f 2f a7 4e 3e 4a b1 2d be
       -0.16042112 0.50856966 0.20180963 -0.16962162
0002c0 85 41 a9 be dd fd 7d be 68 36 b8 be d7 eb a7 be
       -0.330578 -0.24803872 -0.3597901 -0.3279712
0002d0 d1 88 20 be 1e 4e a8 bd 8d 7a 0f be f5 c5 6f bd
       -0.15677191 -0.08218025 -0.14011593 -0.058538396
0002e0 29 c0 c9 bc d1 75 81 3d 0e ab 8a be 6d da 9b bd
       -0.024627762 0.063213 -0.2708363 -0.07610021
0002f0 2d c7 14 3e 64 f6 21 bf 09 3a fe 3d fa 0d 92 be
       0.14529105 -0.6326659 0.12413413 -0.28526288
000300 33 35 ee be a7 d0 64 3d a7 12 f6 bd 11 52 ac 3c
       -0.46524963 0.05586305 -0.120152764 0.021035226
000310 82 4f 1d bf 83 4f e8 3e b6 92 d0 bd 30 a7 c9 bd
       -0.61449444 0.45373163 -0.10184233 -0.098463416
000320 5d e5 ad be 95 0a ed bd ca 85 be 3d 0c db a0 be
       -0.33964053 -0.11574284 0.09302862 -0.3141712
000330 1b 91 8a bd 1e 59 52 3e aa 73 24 3d 0b f3 94 3b
       -0.06765958 0.20541808 0.04014937 0.0045455745
000340 4c 7a eb 3d 58 8a e7 be 3d 27 12 3e 67 89 a1 be
       0.11497936 -0.45222735 0.1427278 -0.31550142
000350 a8 a4 c7 be d7 44 88 3c 10 ff d8 bd 4d 47 0b bd
       -0.3899281 0.016634388 -0.10595524 -0.034003545
000360 3a e7 31 be 8d 44 dd bd 31 b8 e2 bd f2 30 b6 bd
       -0.17373362 -0.10804091 -0.11070288 -0.08896054
000370 ff 84 50 3d 28 52 47 be 98 f3 f7 bd 73 06 1d 3e
       0.050908085 -0.19464934 -0.12107009 0.15334491
000380 e3 cc 0a bf 10 66 26 bc 08 bb a9 bb 42 51 10 3e
       -0.5421888 -0.0101561695 -0.0051797666 0.14093497
000390 d4 0a f1 be 7d 40 ac be 72 f6 d4 be 2c 6a d9 3d
       -0.47078574 -0.3364295 -0.41594273 0.10615954
0003a0 8e da d9 be d5 ab 8a bd 23 68 b3 be e1 cb 34 be
       -0.42549556 -0.067710556 -0.35040388 -0.17655899
0003b0 24 2e 31 3e f3 83 d1 bd a5 a9 db bd 10 c1 c0 3b
       0.17302758 -0.102302454 -0.107257165 0.00588239
0003c0 6d c2 be bd 3c d2 1b be b1 39 c7 bb c6 86 b4 bd
       -0.093144275 -0.15216917 -0.0060798754 -0.088147685
0003d0 e9 e1 f5 bd 8e a7 cf bd 58 50 e8 bd 65 9d e2 be
       -0.120059796 -0.101393804 -0.11343449 -0.44260707
0003e0 a0 b1 8f be c9 02 e9 bb b7 62 91 be e8 38 11 bf
       -0.28065205 -0.0071109277 -0.28395626 -0.5672746
0003f0 81 bd 21 3e 6a 5f 85 be b9 b5 d2 bd 01 5d 8d 3d
       0.15794946 -0.26049358 -0.10288567 0.06902505

actor.2.weight f4 [128, 256]
000000 03 15 6d 3e 60 e5 24 bd 91 f6 07 bf 44 23 55 be
       0.23152547 -0.04025781 -0.53110605 -0.20814234
000010 19 bc 0c be 76 79 81 3d f0 b6 90 bd 0c 78 5e be
       -0.13743629 0.06321995 -0.070661426 -0.21725482
000020 4b 5b d7 bd 47 99 e7 bd 8a 79 80 be e5 e6 0e bd
       -0.105154596 -0.11308532 -0.25092727 -0.034888167
000030 92 ad 34 3e dc bb 90 be b8 30 bb 3c 8f e3 91 be
       0.17644337 -0.28268325 0.02285038 -0.28493926
000040 ec 72 6b 3d ca e6 74 bd 41 85 79 bc 49 ea 93 bc
       0.057482645 -0.05979041 -0.015229524 -0.018056052
000050 e8 91 82 be 5c dd 59 bc 02 0d f0 bd fc 18 0a be
       -0.25501943 -0.013297405 -0.11721231 -0.13486093
000060 22 6e 64 3e 30 79 0f bf 54 e4 0a 3d 77 d9 85 3e
       0.22307637 -0.5604429 0.033909157 0.26142475
000070 d5 5a b0 3d ac c2 65 bd 0f cd 72 be fb 6e 45 be
       0.08611075 -0.056093857 -0.23711036 -0.19280617
000080 88 e9 7b bd 87 ca 6d be b9 bd de bd d0 a8 99 be
       -0.06150201 -0.2322179 -0.108760305 -0.30011606
000090 ab 2d c4 be 0b 92 db be 92 61 ca be d6 f8 31 be
       -0.38316092 -0.4288486 -0.39527565 -0.1738008
0000a0 8f 1e 36 3e eb ec 07 be d4 8e 3d be d4 2d 9c be
       0.17785095 -0.13273971 -0.18511516 -0.30503714
0000b0 ce 6f 1c 3d 54 fe 13 bd 09 04 b6 be 72 7c a4 be
       0.038192563 -0.036131218 -0.35549954 -0.32126194
0000c0 e0 8f 08 3d 20 f1 23 3e 2c 73 8a 3e 9c 8d 58 3e
       0.033340335 0.1600995 0.27040994 0.2114777
0000d0 ac ea 68 3e e1 60 b2 3d bb c5 a2 bd ee 93 1d be
       0.2274577 0.087098844 -0.0794787 -0.15388462
0000e0 b8 e9 00 3d a7 5f 04 be 25 e0 5c be 92 61 36 be
       0.03147289 -0.12927113 -0.2156988 -0.17810658
0000f0 bf b4 5e 3e bc 54 45 be 5d fb 49 3e 32 df 15 be
       0.21748637 -0.19270605 0.19724794 -0.14635924
000100 c7 aa 39 3d 9d 69 f2 bd 39 a0 01 3e b7 7f 46 be
       0.04532888 -0.118365504 0.12658776 -0.19384657
000110 70 1e 48 3e 69 c6 d8 bd cc 31 23 be 56 eb ab be
       0.19542861 -0.10584719 -0.15936965 -0.33577985
000120 a7 60 87 be bb f6 e9 3d d3 ff c8 bc d6 18 a8 be
       -0.26440927 0.11424013 -0.024536049 -0.32831448
000130 54 37 5c be cf fb 35 bd 61 8b 60 be 74 52 da 3c
       -0.21505481 -0.044429597 -0.21928169 0.026650645
000140 11 32 ac be d2 5a d3 bc c5 62 84 3c 7a 98 bc 3a
       -0.33631948 -0.025800142 0.016160378 0.0014388703
000150 cd bf c4 3e 38 03 c3 be ba ab aa be 03 70 17 3e
       0.38427582 -0.38088393 -0.33334142 0.14788823
000160 6d 84 a7 bd f0 6e 48 3e 7d ce 22 be 54 62 08 3c
       -0.08179555 0.1957357 -0.15899082 0.0083242245
000170 37 bc a2 3d bb 9c 03 bf 83 cf 9b 3d 9f f6 7f 3d
       0.079460554 -0.51411027 0.07607939 0.062491056
000180 a5 2a 96 bb 91 13 d4 3d 3c 21 03 bd 1e d9 4b 3d
       -0.0045827203 0.103552945 -0.032014117 0.049767606
000190 1b 93 ab bd 1d a2 74 be b1 f0 c0 bd 7e e6 e9 bc
       -0.083776675 -0.23889966 -0.09420908 -0.02855229
0001a0 81 28 da 3c b4 ab 27 bd d3 14 ab 3b 09 ab 18 3c
       0.026630642 -0.040935233 0.0052209883 0.009318122
0001b0 a4 fa a7 3e 02 78 d8 bc ee 8a 64 3d 7d 85 43 3e
       0.3280841 -0.026424412 0.055796556 0.1909389
0001c0 f8 c6 d1 bd da bd f5 bd 36 cc 1a be 8d 43 c1 3d
       -0.102430284 -0.11999102 -0.15116963 0.094367124
0001d0 b1 95 fd 3d 6b 58 99 be e4 29 a6 3d d0 01 05 3e
       0.12382067 -0.2995027 0.08113459 0.12988973
0001e0 fd ed 2d be a7 2d e6 bd 27 fa 65 be a3 bf f5 3c
       -0.16985317 -0.11239176 -0.22458707 0.029998606
0001f0 87 a9 a6 bd 6b a3 7c 3e c5 38 be be fc 41 d1 bc
       -0.081378035 0.24671714 -0.37152687 -0.02554416
000200 77 26 be 3e 05 6b 75 be 0e c8 9e be 49 c4 28 3d
       0.3713872 -0.23966606 -0.31012005 0.041202817
000210 09 54 b2 3e fa e4 fc 3e e5 48 60 3d 63 66 6a bd
       0.3482974 0.49393445 0.054757018 -0.05722655
000220 44 09 81 be 5f cf 10 3d 69 6c 11 bf 8d c3 7b 3e
       -0.25202382 0.035354014 -0.56806046 0.24586315
000230 49 f4 48 3e b7 1d 43 be e7 bf e8 bc 00 a3 85 3e
       0.19624437 -0.19054304 -0.028411819 0.26100922
000240 1f 31 97 3e d4 57 23 3e 0f 9a c9 bd 4b 52 95 bd
       0.29529664 0.15951473 -0.098438375 -0.07291087
000250 21 ec 3e bb 92 ba 80 3e 4b aa cf be a5 c1 fe 3d
       -0.0029132443 0.25142342 -0.4055961 0.124392785
000260 f1 6c b3 3d 6f ed 38 3c da 7d ca bd 46 d2 42 3e
       0.08761013 0.011287077 -0.098872855 0.19025525
000270 b7 f5 62 3e d2 65 55 bd 5a ba cb 3d 28 77 57 3e
       0.22164045 -0.052099057 0.09947653 0.21041548
000280 50 b9 e5 bd 78 b9 46 3e c9 6f c0 3d 92 4c 01 bf
       -0.11216986 0.19406688 0.09396321 -0.5050746
000290 b0 22 8b 3d 32 07 ab 3e 92 c5 7a be a0 0e ce bd
       0.067937255 0.33403927 -0.2448943 -0.10061383
0002a0 b2 78 27 be 7d ff 97 bd ae 15 3f 3d de d2 75 3e
       -0.16354635 -0.074217774 0.046651535 0.2400622
0002b0 a7 9a 7f be 88 9b 3f bd 65 40 c4 be 0b 62 1f 3e
       -0.24961339 -0.046779186 -0.3833038 0.15564744
0002c0 f7 b7 85 3d d1 99 3b 3c b0 53 01 3e 1c 40 6b 3e
       0.06529229 0.011450247 0.1262958 0.22973675
0002d0 88 f8 ee be 0c d0 d5 3d 97 f2 39 3e fe 20 0f be
       -0.4667399 0.104400724 0.18158947 -0.1397743
0002e0 40 c5 07 3e 38 5d d3 be 31 07 6a be da ab bd be
       0.13258839 -0.41282058 -0.22854306 -0.37045175
0002f0 0e 95 98 bd 44 c0 2d be 36 a0 c9 bc 60 18 d2 bd
       -0.07450305 -0.16967875 -0.024612527 -0.102585554
000300 1b 54 41 3b 4f 7f d2 bd 3c 63 fc 3d e8 ad a0 3d
       0.0029499594 -0.102781884 0.12323615 0.0784567
000310 75 c2 2b be 5c ba d1 bc a3 a1 37 3b 30 7d 8b 3c
       -0.16773398 -0.025601558 0.0028019927 0.017027467
000320 c6 00 8e 3c 19 cf 22 3e ef ff 17 3e 98 fe 86 3d
       0.017334353 0.15899314 0.14843725 0.06591529
000330 e4 85 97 3e 8e 4d 8e be be da b9 3d ba 3b 81 bc
       0.29594338 -0.27793545 0.09074925 -0.01577555
000340 f2 9c 09 bf 1c e2 fd 3d 10 15 23 bd 4b f0 25 be
       -0.53755105 0.123966426 -0.03981501 -0.16204946
000350 ed 82 aa bc ea 45 d8 3d ae 97 7c 3e fa 2e a5 3c
       -0.020814383 0.1056021 0.24667236 0.020164002
000360 70 fc a1 3e 5f 7f b5 bd 47 2c 47 be ac 2f 85 be
       0.31637907 -0.08862185 -0.19450484 -0.26012933
000370 e4 f7 8e 3b 90 ba f6 bd 99 61 c2 3c 24 68 47 be
       0.004363047 -0.12047303 0.023728179 -0.1947332
000380 a9 e6 71 3e bf 74 85 be 00 c6 3a 3d 69 a8 b2 bd
       0.23623146 -0.26065633 0.045598984 -0.08723528
000390 7b 72 2b be 36 f1 b7 bd d9 ae 41 3e 25 79 8f be
       -0.1674289 -0.08981554 0.18914355 -0.28022113
0003a0 9c 99 c2 bd b6 a7 ae bd 8b 99 52 3d 36 fb 8c 3d
       -0.09501955 -0.08528082 0.05141596 0.06883852
0003b0 1e e2 bb bd 9c 16 66 3e d8 bf 16 3e bc e3 7b bc
       -0.09173988 0.22469562 0.1472162 -0.01537412
0003c0 b3 75 e1 bd b2 2b 0b 3e 5f e9 e8 be cf 97 16 3e
       -0.110087775 0.13590887 -0.45490548 0.14706348
0003d0 09 03 23 3d 1d 63 64 be eb 58 02 be d1 e0 97 3e
       0.039797816 -0.22303434 -0.12729232 0.2966371
0003e0 c9 4b 4c 3e 7e 2c 2d be 1d 95 5e 3c 1b a2 d8 3d
       0.19950785 -0.16911504 0.013585356 0.10577794
0003f0 8f 60 c6 3c 76 d6 12 3d 74 e4 46 be d7 47 ac 3d
       0.024215965 0.035849057 -0.19423085 0.0841214

actor.2.bias f4 [128]
000000 6f dd a7 be e3 ea a2 be ee 72 9b be e8 c8 05 bf
       -0.32786128 -0.3181983 -0.30361122 -0.52259684
000010 5d 94 b8 be bc 8c 1e be 12 7a 84 be c9 4a 6f be
       -0.36050692 -0.15483373 -0.25874382 -0.23368372
000020 a9 bd 61 be 8b 00 40 bf 15 55 7e be b3 2b 8d bd
       -0.22045006 -0.7500083 -0.24837144 -0.068931006
000030 0f 79 bf be dd e6 56 be 54 af 8a be 88 aa d2 be
       -0.37397048 -0.20986505 -0.2708689 -0.4114573
000040 e0 d1 5c 3d 6b 7c a0 3c 27 72 8f be 07 21 91 be
       0.05391109 0.019590577 -0.2801678 -0.2834551
000050 2c f1 a6 be a5 a4 1a bf 71 c5 b4 be b3 51 f7 3d
       -0.32605875 -0.6040748 -0.35306886 0.1207613
000060 19 1b 13 be 6c 1b cf be d0 68 8d be 33 40 64 be
       -0.14365806 -0.4045061 -0.27619028 -0.22290115
000070 4d 54 e6 be d6 c5 6d bc 82 b1 85 be c2 0c c3 be
       -0.4498619 -0.0145125 -0.2611199 -0.3809567
000080 df f2 da bd 94 90 3a be fe f0 93 3e 9d 20 5e be
       -0.10690855 -0.18219215 0.288948 -0.21692128
000090 72 50 13 be 6f 0f 8a be 93 63 ba be ce 98 35 be
       -0.14386156 -0.269649 -0.36404094 -0.17734072
0000a0 8d 28 4e be e0 4c 97 bd 7a a1 ed be 18 10 f1 be
       -0.20132656 -0.073877096 -0.4641226 -0.4708259
0000b0 f0 2b ec be 8a 03 f1 bd 7a 42 1d bf 05 0a c1 be
       -0.46127272 -0.11768253 -0.6142956 -0.37702957
0000c0 45 1f c7 be 76 09 b7 be 94 d7 af be 65 49 90 be
       -0.38891044 -0.35749406 -0.3434416 -0.28180996
0000d0 72 9c fe be 48 fb f8 bd 2e 81 a5 be 78 c6 8d be
       -0.49728733 -0.12157303 -0.3232512 -0.27690482
0000e0 29 f8 83 be 6b 29 55 be ea 83 05 bf 0d bd 2c be
       -0.2577527 -0.20816581 -0.5215441 -0.16868992
0000f0 1e 1a d7 bd da 97 c5 be 9d 72 f3 be fb 26 73 3d
       -0.10503028 -0.38592416 -0.4754838 0.059363347
000100 32 0e b1 be 20 ef 83 be ec a0 ad bd dd bc a6 be
       -0.34581143 -0.25768375 -0.08477959 -0.32565966
000110 69 a4 8a be 18 24 81 be 88 76 7c be 67 f9 2f bd
       -0.2707856 -0.2522285 -0.24654591 -0.042962458
000120 33 f2 d6 be 63 d2 42 bd 71 46 c9 bd a7 ff e3 bd
       -0.41981658 -0.04756392 -0.09827889 -0.11132746
000130 51 19 21 be c5 b8 a9 be 42 12 6e be 8a 92 4a be
       -0.15732314 -0.3314878 -0.23249152 -0.19782463
000140 7d 9d 92 be 3f f8 f1 bd 82 9a d7 be a5 90 3c bf
       -0.2863578 -0.11814927 -0.42110068 -0.7365821
000150 60 cf ac be c9 b8 1a 3c 71 71 cd bd 49 ff cb bd
       -0.33751965 0.00944347 -0.10031403 -0.09960801
000160 f1 0a a5 bd 5a 6d cd be 58 b1 75 bd 5a fe bf bb
       -0.080587275 -0.4012249 -0.05998358 -0.0058591785
000170 e2 4b 9f be 26 7b 86 be bc 6f 54 be da 9b 60 be
       -0.31112581 -0.2626583 -0.20745748 -0.21934453
000180 f6 1f 74 bd 96 d2 18 be da 81 74 be 76 ec b2 bd
       -0.059600793 -0.14924082 -0.2387766 -0.087365076
000190 50 ac f2 be 03 cb 87 be 03 e8 24 be a4 ac 47 be
       -0.4739709 -0.26522073 -0.1610413 -0.19499451
0001a0 c1 2e fb be 69 c4 64 be ec 41 a6 be 8b aa 4f be
       -0.49059108 -0.2234055 -0.3247217 -0.202799
0001b0 e8 27 22 bf 22 24 2a be 03 29 93 be ad 51 ab bd
       -0.6334214 -0.16615346 -0.28742227 -0.08365188
0001c0 88 48 29 bd 7e 26 da bd 20 92 87 be a1 98 bb be
       -0.041328937 -0.10651873 -0.26478672 -0.36639884
0001d0 cc 61 63 be 78 4a 2c 3e 68 e5 dd bd fb d8 bf be
       -0.22205275 0.16825283 -0.108347714 -0.3747023
0001e0 1b c6 9d 3c ca 77 bd be d1 e4 9a be d3 a7 c2 bd
       0.019259503 -0.37005454 -0.30252698 -0.09504666
0001f0 a8 97 b1 be 3d 4c 26 be 68 74 b3 bd 96 53 c4 be
       -0.34686017 -0.1624002 -0.08762437 -0.3834502

actor.4.weight f4 [128, 128]
000000 73 0c b0 3d ea c6 4c 3d d6 fb be bd 48 05 d9 bd
       0.085961245 0.049994387 -0.09325378 -0.105967104
000010 61 7d d7 bd 21 5c c9 bd db 2e b2 be 7e 32 8b 3d
       -0.10521961 -0.09832025 -0.34801373 0.0679674
000020 47 b9 92 3e 77 89 98 3c 86 ab 75 be 61 6f 6f 3c
       0.2865698 0.018620236 -0.23991212 0.014613957
000030 ab db 1f bd cf b9 02 be 2b 59 e2 be e7 8a aa 3c
       -0.03902785 -0.12766193 -0.44208655 0.020818187
000040 7a 67 05 3d 45 11 1f be b5 85 f9 bd 9e 77 3d be
       0.032569386 -0.15533932 -0.12183706 -0.18502662
000050 54 e3 e6 3d 60 6d da bd 88 0f 5b 3c 8a 1c af be
       0.11273828 -0.10665393 0.013370402 -0.3420146
000060 5a 2e d5 3c f0 b6 ef bd d5 8c 13 3c af bf 4e bd
       0.026023079 -0.117048144 0.009005745 -0.050475772
000070 fd fa 1e 3d 03 68 4b 3e 36 46 aa bd a5 4b b2 3d
       0.03881358 0.19863896 -0.08314173 0.08705834
000080 b0 9c 1a 3d 76 26 0f 3d 27 17 89 bd 0c ad 6f be
       0.037747085 0.03494879 -0.06693869 -0.23405856
000090 ac ea 4a be cc 47 f5 3c a6 17 56 bd f1 dd 8a 3d
       -0.19816083 0.029941462 -0.052268647 0.06780613
0000a0 8f b0 b2 bb c5 ac 6c 3d 1c d7 b2 be d4 5d 62 3d
       -0.0054531763 0.057781953 -0.3492974 0.055265263
0000b0 c8 99 10 3e b3 b4 f0 bd ba 41 2c 3e 0e e3 89 bd
       0.14121163 -0.11753216 0.16821948 -0.0673276
0000c0 58 db 2a 3c 71 10 f4 bc 2e a3 4c bd cb b8 7a 3e
       0.010428272 -0.029792996 -0.049960308 0.24484555
0000d0 af 8c 17 3e 92 3b 26 3c f0 37 c0 3c c3 d0 a7 3d
       0.1479976 0.010146039 0.023464173 0.08194115
0000e0 35 22 8f be dd 2c a1 be 12 08 93 3e 83 c3 2a be
       -0.27955785 -0.3147954 0.28717095 -0.16676144
0000f0 5f c9 ce bd 11 1a 96 bc 68 7d 9f be 0d 7c b6 be
       -0.10097002 -0.018322976 -0.31150365 -0.35641518
000100 ac 97 00 be f9 4e b5 bd d0 0d 31 be 60 9c 74 3c
       -0.12557858 -0.088529535 -0.17290425 0.014929861
000110 95 90 23 3e 37 93 1a 3c 0c 77 39 3d 00 d3 7a 3d
       0.15973122 0.009434513 0.045279548 0.06123638
000120 39 b8 af bd 93 74 47 3c a7 b9 78 bc e1 21 54 3e
       -0.085800596 0.01217379 -0.015180982 0.20716049
000130 f6 4c 6d be 89 46 61 bd aa 16 32 bc 7f bd df 3c
       -0.2317389 -0.05499891 -0.010869661 0.027312038
000140 5c 17 cc bd 46 a0 80 be d4 70 14 3e 2b d3 9d 3e
       -0.09965393 -0.2512228 0.14496166 0.3082517
000150 9c 44 94 3c 80 05 c0 bd b5 ad 05 bf 03 95 76 be
       0.018099122 -0.09376049 -0.5221818 -0.24080281
000160 0c 0b 16 bd 8c 96 5c 3d 7a fd 0c 3d 47 b4 8d be
       -0.03663163 0.05385451 0.03442142 -0.27676603
000170 5b a7 06 be f7 fc 40 3b 90 ad 91 be ce 35 5e be
       -0.13149779 0.0029447654 -0.2845273 -0.21700212
000180 6a 47 49 3d 1b e1 18 bd 9a 4a 8a 3e f1 a6 4e bd
       0.04914037 -0.037324052 0.2701004 -0.050452176
000190 5c 6c fa 3d 93 a8 73 bd 2d 16 9f 3d 16 2e fc 3d
       0.12227699 -0.059486937 0.077679016 0.12313478
0001a0 1a e9 d1 3d 80 26 b2 bd 42 c0 4a 3c a2 4b b9 bc
       0.10249539 -0.086987495 0.012374939 -0.022619072
0001b0 81 fe 1d 3e 50 3b 24 be fc 98 21 be d2 c6 8e bc
       0.15429117 -0.16038251 -0.15781015 -0.01742879
0001c0 7b f9 47 3e 86 f7 83 be 70 5c df 3d 58 c8 68 3d
       0.19528763 -0.25774783 0.10906303 0.056831688
0001d0 0e f9 b2 bd 1f 30 60 3b 69 47 7d 3d d6 09 5f bd
       -0.0873891 0.003420837 0.06183568 -0.05445274
0001e0 4c 7e 08 be 30 19 a6 3c d9 ea 12 3e c9 d4 1f be
       -0.13329428 0.020275682 0.143474 -0.15608515
0001f0 49 5c b0 3b a6 8c c7 be ec 72 57 be 5f 2f f8 bd
       0.005382095 -0.38974494 -0.21039933 -0.1211841
000200 2c 4e 91 be 86 e9 a0 3c 75 41 70 3c 48 8c f0 bc
       -0.28379953 0.019642603 0.014664044 -0.029363766
000210 0a 99 46 3e da 88 44 bd d6 70 25 3e e6 12 b3 3e
       0.19394317 -0.047982074 0.16156325 0.34975356
000220 d5 7e dc bd 9f d2 e4 3d 66 64 3d be 2e be 9c bd
       -0.10766379 0.11172985 -0.1849533 -0.076534614
000230 4e f9 92 3e 9d ff df 3d f3 6c 5a bc 5b 26 29 3e
       0.2870583 0.10937426 -0.01333164 0.16518538
000240 ec 9f ab be 2d 54 33 bd 27 12 86 bd 80 c5 a3 3e
       -0.33520448 -0.04378145 -0.06546431 0.31986618
000250 c7 e3 0d 3e cc 12 af bd 47 57 02 3f 1d f6 dc bd
       0.13856421 -0.08548507 0.50914425 -0.1078913
000260 99 cd cf be fc 17 9c 3e 09 93 f6 bd 74 0d 86 3e
       -0.40586546 0.3048705 -0.120397635 0.2618214
000270 11 c0 91 be 6b 7d 0d 3e 73 f7 c0 be fc 23 fd 3e
       -0.28466848 0.13817374 -0.3768879 0.49441516
000280 77 f2 a6 be 4e 97 e7 3e ce 15 47 bd 05 4a 19 be
       -0.3260686 0.45232624 -0.04860478 -0.14969642
000290 62 cc 8d be f8 8c f7 bd 1e 78 de 3d 02 d6 34 3d
       -0.27694994 -0.120874345 0.10862754 0.044149406
0002a0 7b 41 94 be 3b 0f c2 bd 91 03 26 bd 5c 98 d7 3c
       -0.28956208 -0.09475561 -0.040530745 0.026317768
0002b0 e5 ba f6 3e 95 71 e4 bd 8b 1f 15 3e b8 67 12 3e
       0.48189464 -0.111544766 0.14562814 0.14297378
0002c0 30 7b 18 3e 46 fc 3a 3e b4 5b 04 bd 0c 30 e9 3b
       0.14890742 0.18260297 -0.032314017 0.0071163233
0002d0 91 33 d4 3d d7 c4 28 3e 6b bd c7 bd 83 15 96 3e
       0.10361398 0.16481338 -0.097529255 0.29313287
0002e0 d8 20 c7 bb 32 66 e2 bb 84 0a 06 3e 00 56 bc bd
       -0.0060769133 -0.0069091553 0.13089949 -0.09196091
0002f0 d4 d3 f3 bd 9b e6 48 3e 18 d0 47 3e 98 b5 91 3d
       -0.119056374 0.19619219 0.19512975 0.071147144
000300 04 ee ec bc e4 5a a4 be 2d 17 a7 be b0 d1 56 be
       -0.028922088 -0.32100594 -0.3263487 -0.20978427
000310 51 5c e5 bd f1 b0 e6 be 62 1f cc 3d 39 3e a0 bd
       -0.111992486 -0.4505687 0.09966923 -0.07824368
000320 b3 e0 6f 3e 8d 2a ab bb a9 b3 ae 3d 11 8d 94 3d
       0.2342556 -0.0052235783 0.08530361 0.07253469
000330 e5 06 73 be 3b 26 a8 3e 0c dc 3a bd 6e 04 52 3c
       -0.23733099 0.32841668 -0.04562001 0.012818439
000340 b1 2a 62 3e 74 46 b5 3d 83 f4 d9 bb 07 a1 88 3e
       0.22086598 0.088513285 -0.0066514625 0.26685354
000350 e0 3d 05 be 84 cd bc bb 3b c9 cf 3b 25 5f 06 3e
       -0.13011885 -0.005761804 0.006341127 0.13122232
000360 f0 b9 58 be f3 b7 03 3e 7a c0 20 be 8e 9a 93 bd
       -0.2116468 0.1286314 -0.15698424 -0.07207213
000370 b4 8a d1 3d 43 68 12 3d ac de 01 3e 16 ca 05 bf
       0.10231534 0.035743963 0.12682599 -0.52261484
000380 1c 01 f2 3d f9 1e a3 be 09 4f c5 3d 46 b5 db bd
       0.11816618 -0.31859568 0.096342154 -0.107279345
000390 f2 bd 0a 3e d1 2b 32 bd be 8a 86 be 13 ac f6 bd
       0.13549021 -0.043498818 -0.26277727 -0.12044539
0003a0 3c b0 7b 3e 97 6a 29 3e be 7c 9d 3e 25 db 4a 3d
       0.24578947 0.16544567 0.30759233 0.0495254
0003b0 7d 64 19 3d 84 65 49 be 4c e0 af bb da 8d 9f 3c
       0.03744935 -0.19667631 -0.0053673144 0.01947682
0003c0 b0 93 d9 be a5 83 81 3d 42 0a fd bd 29 73 17 be
       -0.4249549 0.06323937 -0.12355472 -0.14790024
0003d0 b7 0a c8 3c c1 4a c3 3d 8e 61 9c be 51 e6 bf 3d
       0.024419172 0.095357426 -0.30543178 0.09370101
0003e0 4b 6b b2 be c6 19 ae 3e 04 f2 a1 3e ea aa 6e bb
       -0.34847483 0.3400404 0.31629956 -0.003641779
0003f0 bb 2b f3 3d 21 13 cf 3e 70 a1 61 bc 25 65 7e 3d
       0.11873575 0.40444282 -0.0137714 0.062108178

actor.4.bias f4 [128]
000000 fa 11 a9 bd 6c a5 a7 be 76 1c 72 bd be 3f 2b be
       -0.08255382 -0.32743394 -0.059109174 -0.16723534
000010 e4 a4 1b be b6 6e 57 be 7a 02 5a be 5a d7 3c be
       -0.1519962 -0.21038327 -0.21290007 -0.18441525
000020 89 ea 5d be a3 a0 80 bd 4d 17 92 be e7 73 a1 be
       -0.216715 -0.06280639 -0.28533402 -0.3153374
000030 ec 86 32 be 37 0c de be 32 47 55 be 43 de 5f be
       -0.17434281 -0.43368694 -0.2082794 -0.2186213
000040 7e 9d 3d be a5 f4 89 be 91 60 98 be 53 b6 89 be
       -0.1851711 -0.2694446 -0.29761174 -0.26896915
000050 1d 93 be be 2d da 00 be a4 c8 6a be b1 4e 7b be
       -0.37221614 -0.12583227 -0.22928101 -0.24541737
000060 13 21 b9 be 85 1d 03 be 33 8e 8b be 50 9f b3 be
       -0.36158046 -0.1280423 -0.27256927 -0.35082483
000070 33 bd e0 be 38 2f 56 be 52 1c 8c be fb 26 d5 bb
       -0.43894348 -0.2091645 -0.27365357 -0.006504891
000080 69 a0 a0 be 54 9e 9a be 47 db 07 be 4e 11 67 be
       -0.31372383 -0.3019892 -0.13267241 -0.22565195
000090 1a 4d 58 be 72 46 77 be 76 34 7c bd 43 b6 b2 be
       -0.21123162 -0.24147967 -0.06157347 -0.3490468
0000a0 f6 8f 75 be d8 7d 50 be 4d 8f 8d be b3 ee a9 be
       -0.23980698 -0.20360506 -0.27648392 -0.33189926
0000b0 e6 75 8d be 22 53 cd be a2 e0 1a be 8a 94 57 be
       -0.27629012 -0.40102488 -0.15124753 -0.21052757
0000c0 bd 10 65 be 41 e6 56 be 97 df 58 bd c6 a2 af bd
       -0.22369666 -0.20986272 -0.052947607 -0.085759684
0000d0 ec e8 7b 3d 8f fb 8c be 9e 9d e6 bd 52 8a ae be
       0.06150143 -0.27535674 -0.11260532 -0.34089905
0000e0 9b 7d ec bc 58 63 4c be 07 63 44 be ad ef c2 be
       -0.028868487 -0.19959772 -0.19178401 -0.38073483
0000f0 70 a7 9a be 43 47 46 be 02 61 68 be 08 a4 4f be
       -0.3020587 -0.19363122 -0.22693256 -0.20277417
000100 ab 6f b9 be 1c 4d 9e bd e1 10 d8 bd c4 72 8a be
       -0.36218008 -0.07729551 -0.105500944 -0.27040684
000110 7c e0 16 be 63 df 95 be d9 98 8c be 30 b5 a0 be
       -0.14734071 -0.29271993 -0.27460364 -0.31388235
000120 fc 0a a6 bd 0e b6 86 be 90 eb 81 be 9f f5 a9 be
       -0.08107564 -0.26310772 -0.25375032 -0.33195207
000130 82 1c e4 be 72 ae ba be 4d 2c 91 be 0d f0 73 be
       -0.44553 -0.36461216 -0.2835411 -0.23822041
000140 df cd 5e be c9 8a 99 be da 9d 1c be 8f 9a 4e be
       -0.21758221 -0.29988697 -0.1529459 -0.20176147
000150 75 6e bf be 3e 84 90 be 4b 47 2f bf 43 c2 31 be
       -0.3738896 -0.28225893 -0.6846816 -0.17359261
000160 5a 80 33 be 7f fb 40 be 33 3e f3 bd 38 8b 83 be
       -0.17529431 -0.18845938 -0.11877098 -0.25692153
000170 10 7b 8f be 58 b5 8f be a2 87 f3 be 2e 68 4b be
       -0.28023577 -0.28068042 -0.47564417 -0.1986396
000180 c4 19 61 be 6a ec 74 be 2c 47 62 be dd f7 46 be
       -0.21982485 -0.2391831 -0.22097462 -0.1943049
000190 30 aa d8 bd 5e a6 82 be ef c5 12 be fb 49 25 be
       -0.10579336 -0.25517553 -0.14333318 -0.16141503
0001a0 b5 31 43 be 41 15 fb be 4c ce 6f be 60 e2 77 be
       -0.1906193 -0.49039653 -0.2341854 -0.24207449
0001b0 e9 63 c9 ba dd 29 25 be 4b 6e c7 be 99 19 23 bf
       -0.0015364859 -0.16129251 -0.38951334 -0.63710934
0001c0 25 6f 89 be 6d a2 bb be 0b d9 91 be f4 e4 68 be
       -0.2684261 -0.3664736 -0.28485903 -0.22743589
0001d0 c2 bc 8d be 19 b5 97 bd b2 dd 61 be 7f 3f be be
       -0.27683073 -0.074075885 -0.22057226 -0.3715782
0001e0 b0 a6 a3 be 5b 6e fc bd 4a b3 5c be e0 0a 0d be
       -0.3196311 -0.12325736 -0.21552768 -0.1377368
0001f0 50 89 87 be f2 9c bb bd e2 c3 5e be 35 e6 92 be
       -0.2647195 -0.09160794 -0.21754411 -0.2869126

actor.6.weight f4 [12, 128]
000000 9b 16 83 3d 61 d2 d4 bc 2f 53 f5 ba 69 b4 78 3b
       0.06400796 -0.025979223 -0.0018716807 0.003794933
000010 c8 84 2c 3d b1 ce 86 bd f2 7b bc bb 23 ba 1c 3e
       0.042118818 -0.06582392 -0.00575208 0.1530538
000020 66 84 b9 bc 25 ba 78 3c 9f e3 d5 bb 41 10 29 bd
       -0.02264614 0.015181099 -0.0065273787 -0.041275267
000030 74 92 08 3d 20 28 b4 3d 04 fa ad 3c 7a f0 ea bc
       0.033342794 0.08796716 0.02123738 -0.028679121
000040 b1 eb 1f 3c 24 ce 2d 3c f8 ea 7d bd 98 77 af 3a
       0.009760783 0.01060823 -0.06199166 0.0013387082
000050 34 11 b8 3c 8d f6 e2 3d e4 e3 00 bd 8e 53 25 bd
       0.02246914 0.11082182 -0.031467333 -0.040362887
000060 5c 3a 1a 3d 0b ba fa 3a 2b 37 de bc 01 18 81 3c
       0.037653312 0.0019128931 -0.027125916 0.015758516
000070 1f d7 f5 bd 80 e0 c8 3c ed ab f5 bc 5f fc c8 3c
       -0.12003922 0.024521112 -0.029989207 0.024534402
000080 f9 5a 83 bc b3 75 8a bd d8 00 58 bc e8 1e 10 bd
       -0.01603459 -0.067607306 -0.013183795 -0.035185724
000090 a2 4f 83 bd 52 57 61 3d 91 6c 9e 3d 69 9b a5 bd
       -0.06411673 0.055014916 0.07735551 -0.08086283
0000a0 5e 3b d4 bb a8 34 cd bb 05 78 08 bd 10 1a 36 bd
       -0.0064768037 -0.0062623806 -0.033317585 -0.04445845
0000b0 29 26 6a 3a 72 e7 60 3d e2 0d 01 bd c4 6c 0d 3d
       0.0008932078 0.054908223 -0.03150738 0.034527555
0000c0 46 02 f6 3c 26 4b 01 bd 60 43 6f 3c 41 b9 62 bc
       0.030030381 -0.031565808 0.014603466 -0.013838113
0000d0 8d 7a e7 bb 16 67 48 bd fb 53 fa bb 44 e9 aa bd
       -0.0070641697 -0.048926435 -0.007639406 -0.08345273
0000e0 d4 0e 17 3d 9a 17 33 bd e6 56 18 bc b1 59 f0 bc
       0.036879376 -0.04372368 -0.009298062 -0.029339643
0000f0 4e 8a 6e bd 0c 79 db 3c ed 6f e2 3c 98 fe 96 bd
       -0.058237366 0.026791118 0.027641261 -0.07372779
000100 de f4 bd 3c cd 15 39 bd a5 7d a5 3c 18 bd d5 bc
       0.02318805 -0.045186806 0.020201514 -0.026091143
000110 15 e3 8a bd 65 d7 a1 bc 5e f1 04 bc 07 be 8f 3d
       -0.06781594 -0.019756028 -0.008114187 0.07018667
000120 22 61 71 bc 05 45 3b bd 87 fa 03 3d fa dd 04 bd
       -0.014732631 -0.04572012 0.032221343 -0.032438256
000130 ea c3 1f bd 1d be 07 3d 48 13 85 bc 6f df fe bb
       -0.039005198 0.03314029 -0.016244546 -0.0077781
000140 06 2b 34 3d e5 43 4d bc 10 6f 8f 3c 08 1f 25 bd
       0.043986343 -0.012528394 0.017509013 -0.040312797
000150 e7 fe f0 bc 73 42 5c 3d 31 6f a7 bd 8d 9b 37 3d
       -0.029418422 0.05377431 -0.08175505 0.04482608
000160 a2 9b ec ba ae 84 29 3c fc 6b 06 3d eb 51 87 bc
       -0.0018051753 0.010346575 0.032817826 -0.016518554
000170 e7 f6 fb 3b 28 5e 5f 3d 8a eb c7 3d 4d 8c 9f 3d
       0.007689345 0.054533154 0.097617224 0.07790432
000180 83 3f 94 bd b2 91 b0 ba 9f 0f 08 bd b1 1d 90 3c
       -0.072386764 -0.0013471155 -0.033218022 0.017592283
000190 2d 60 18 bc bb b7 87 3d e0 c5 0b bd 84 49 2c 3d
       -0.009300274 0.06626841 -0.034124255 0.042062297
0001a0 bc 12 a1 3d 5a 89 2c bd 45 9f 78 3c e3 b4 92 3b
       0.078649014 -0.042123176 0.015174692 0.00447713
0001b0 46 9c 71 3c 85 b2 7a 3d 54 e1 9c 3d da 09 1e 3d
       0.014746731 0.061205406 0.076601654 0.038583614
0001c0 d9 c5 79 3c b6 79 7b bb 9f 6c 3c bd a5 27 41 bd
       0.015244924 -0.0038372106 -0.046002027 -0.04715695
0001d0 fa ed a0 bd 03 87 0a 3d fd e5 62 3b d8 9e 02 3d
       -0.078578904 0.033820163 0.0034621947 0.031889766
0001e0 fc 8d 0a 3d 19 0f d4 3c 86 4f 0a bd eb c5 05 bd
       0.033826813 0.025886105 -0.033767246 -0.032659452
0001f0 5b 52 d7 3c 2d 1a 0e bc 23 1c fe 3c 5a bb 9b 3d
       0.026284387 -0.008673233 0.031019276 0.07604094
000200 75 65 72 3d 29 2a 93 bd d7 cc 81 3c 95 9d b3 bd
       0.05917879 -0.07185776 0.015844746 -0.08770291
000210 54 91 81 3d 15 89 00 3d 4a cb 0a 3d f9 55 12 3c
       0.06326547 0.03138073 0.033885278 0.00893163
000220 25 87 4b bc 80 cd d5 bb ed 6a 0f bd 49 45 52 bd
       -0.012422358 -0.0065247416 -0.03501408 -0.051335607
000230 22 77 2c bb 77 c2 6f 3e 90 4c b4 bc 73 45 9c bc
       -0.0026316126 0.23414026 -0.022009164 -0.019076085
000240 27 35 b6 3d 80 71 fe 3c 4e 02 0f bd 6f b1 88 3c
       0.08896857 0.03105998 -0.034914307 0.01668617
000250 9d 2e b0 bd fc 53 1c 3d bb 22 07 3c de d7 7e bb
       -0.08602641 0.03816603 0.0082480265 -0.003888599
000260 85 15 77 b9 63 14 bc bc 0c 7e 86 bc 24 09 40 bd
       -0.00023563772 -0.02295894 -0.016417526 -0.046883717
000270 dc d1 c1 bc 16 a0 21 bd e7 6b 01 bc 5c 0c 17 3d
       -0.023659639 -0.03945931 -0.007899261 0.03687702
000280 02 e6 ad bd b1 c5 78 bb 3f 9d 02 3c 3a aa f2 3c
       -0.08491136 -0.003795963 0.007972061 0.029622186
000290 9c d1 bd bc 13 12 22 3d d2 7d 6e 3d cf 13 a5 bd
       -0.023171239 0.03956802 0.05822546 -0.08060419
0002a0 3a 68 cf bc c6 da 63 3d bf 48 17 bc 15 81 b3 bd
       -0.025318254 0.05562856 -0.009233653 -0.08764855
0002b0 af 4f 71 3d b1 ca 90 3d a3 3d 3d bb e6 ed 1b bd
       0.058913883 0.0706991 -0.002887585 -0.038068675
0002c0 ac 3f 39 3d c2 38 54 3c f2 bf 40 bd 10 d2 d8 bd
       0.045226738 0.012952985 -0.047058053 -0.10586941
0002d0 bc cc 24 3c cd e0 44 3d 0e e6 03 bb 05 7f 63 3d
       0.010058578 0.04806595 -0.0020126137 0.055541057
0002e0 8d 5d 2f bd ba 75 85 bc 06 14 46 bc 01 64 ac 3c
       -0.042813826 -0.016291488 -0.012089735 0.02104378
0002f0 e8 b7 53 3d de ab 9b 3a 9a 95 0f 3d 8e 86 86 bd
       0.05168906 0.0011876782 0.03505478 -0.06568633
000300 c5 a5 34 3c 99 c0 b0 bc 07 3f 77 3c 18 a7 a8 bd
       0.011025851 -0.021576213 0.0150907105 -0.082349956
000310 df f5 34 bd d6 80 be 3d fa 78 98 3c 79 c3 a4 bc
       -0.044179793 0.09301917 0.018612374 -0.02011274
000320 6d a8 61 3d 7b 03 91 3c 89 b2 a7 3d 50 97 ea bc
       0.055092264 0.017701855 0.0818835 -0.028636605
000330 d2 97 b8 bb 6a 3a 80 3d 5b 3e 0a bd 97 f5 8d 3c
       -0.0056333328 0.062611416 -0.033750873 0.01732902
000340 05 21 2a bd 10 31 0d bd cc e0 6b bc 87 e6 d9 bc
       -0.041535396 -0.034470618 -0.0143968575 -0.026599182
000350 c1 e2 3a 3c d4 b5 85 bc de 39 79 bd 5b dd 6e 3d
       0.011406601 -0.016322054 -0.060846202 0.05831657
000360 8e be da bc 78 a0 d6 bc f0 46 31 ba 36 94 44 3d
       -0.026702192 -0.026199564 -0.00067625847 0.047992907
000370 64 b6 b7 3b 1b ca 22 3d 77 58 7b 3d a3 d3 8a 3d
       0.0056064595 0.039743524 0.061363664 0.06778648
000380 2b 0d 10 bc 5d 1c ab bc 10 8d 4f bd 88 4b 60 3d
       -0.008792202 -0.020887548 -0.050671637 0.054759532
000390 72 ad ba 3c 13 de b6 3a e9 99 8f 3d 3e c4 43 3d
       0.022787783 0.0013951681 0.07011778 0.047794573
0003a0 c3 5f da bc 9c af 1d bc 9a a2 6b 3a 8c f5 df bc
       -0.02665699 -0.009624388 0.0008988768 -0.027338766
0003b0 d6 8f 86 3c 53 0f 21 3d a8 14 95 bd 2d 74 9e bb
       0.016426008 0.039321255 -0.072793305 -0.0048356266
0003c0 85 77 e9 bd 15 f2 ee bc cc 5c 9c bd 6c bd 40 bc
       -0.1139975 -0.029168168 -0.07634887 -0.011763912
0003d0 a9 ce b5 3b ce 9b 05 bc 72 7b 58 bc 12 1f 1f bc
       0.0055483175 -0.0081548225 -0.013213025 -0.009711998
0003e0 56 34 bd bd e6 2b e2 3c 16 a3 5d 3b b4 a0 c6 3b
       -0.09238498 0.027608823 0.003381913 0.006061638
0003f0 ac 45 de 3c 2c 04 07 3d 62 8f ce 3c 59 97 d8 bc
       0.027132832 0.032962963 0.025214855 -0.026439356

actor.6.bias f4 [12]
000000 4d 2a a9 3e 09 18 41 3e a3 50 54 be 50 08 b5 bc
       0.33040085 0.18856825 -0.20733885 -0.02209869
000010 38 81 30 3e a1 a4 26 be 9c 65 6b be f8 d8 8d be
       0.17236793 -0.16273738 -0.2298798 -0.27704597
000020 7d 6b aa bd d2 db 5f bd 91 c4 10 3e 31 7e 86 3e
       -0.08321283 -0.054652996 0.14137484 0.2626815
