checkpoints/policy_biped_25hz_a.onnx (onnx, 252181 bytes, 8 tensors)

actor.0.weight f4 [256, 45]
0	0x3f1bd4bb	0.60871476
1	0xbd72ffbf	-0.05932593
2	0xbe53091a	-0.2060894
3	0xbbc0893a	-0.0058757337
4	0xbef12b74	-0.47103465
5	0x3dc7fcc0	0.09765005
6	0xc008e98c	-2.1392546
7	0xbf3d2e02	-0.7389833
8	0x3f0123a6	0.5044502
9	0x3f3caa44	0.73697305
10	0x3f0e0c6c	0.55487704
11	0x3e50bddf	0.2038493
12	0x3eb23cab	0.3481191
13	0x3e287acb	0.16453092
14	0xbf17608a	-0.5913168
15	0xbf96a3d8	-1.1768751
16	0x3f671c03	0.9027712
17	0xbf262b3b	-0.64909714
18	0xbdd0cf93	-0.10195842
19	0xbef6f4ce	-0.48233646
20	0x3f383e4f	0.71970075
21	0xbb83e819	-0.004025471
22	0xbc7a298b	-0.015268694
23	0x3d078615	0.033086855
24	0xbc53a1f1	-0.012917028
25	0xbd08b4ce	-0.033375554
26	0x3d31f0e7	0.043442633
27	0x3adfc68c	0.0017072721
28	0xbd32f096	-0.043686472
29	0xbdb2c71e	-0.08729385
30	0xbcfc13f6	-0.030771237
31	0xbcf62d1f	-0.030050812
32	0x3daa0f1b	0.083036624
33	0x3cc2e34a	0.02379002
34	0xbe756cef	-0.23967336
35	0x3c9c7eb1	0.01910338
36	0xbc5f70f5	-0.013637771
37	0xbdd799f5	-0.10527412
38	0xbcf701c3	-0.030152207
39	0x3ec3284f	0.3811669
40	0xbd0d2695	-0.034460623
41	0xbe5cad82	-0.21550563
42	0xbd854167	-0.06506615
43	0xbe4b7c81	-0.19871713
44	0xbdd76307	-0.10516935
45	0x3f5c0041	0.8593789
46	0xbe1c90cb	-0.15289609
47	0xbedb5e45	-0.4284536
48	0xbe1008a4	-0.14065796
49	0xbe2791e6	-0.1636425
50	0xbcd2fee5	-0.025756309
51	0xbffec409	-1.9903575
52	0x4009c97f	2.1529233
53	0x3e4fdb90	0.202986
54	0x3dc6d5c2	0.0970874
55	0xbe04d0d7	-0.12970291
56	0xbe8a1626	-0.26970023
57	0xbe85cf2d	-0.26134625
58	0x3f5bac45	0.8580974
59	0xbf9ef1af	-1.2417506
60	0xbeb2f91d	-0.34955683
61	0xbfd89f19	-1.6923553
62	0x3ef84604	0.48490918
63	0x3ef5983c	0.47967708
64	0xbf51d25f	-0.81961626
65	0xbe9ace3e	-0.30235475
66	0xbde25e9b	-0.11053201
67	0xbc97f1c8	-0.018547907
68	0xbcf47f02	-0.029845718
69	0x3d7b32fa	0.061327912
70	0xbd3bf0eb	-0.045884054
71	0x3d923bd8	0.071403205
72	0xbc6056df	-0.013692587
73	0xbd87ca0f	-0.066303365
74	0x3c115745	0.008870904
75	0x3bf08b2a	0.0073408084
76	0xbd83d1cd	-0.06436501
77	0xbd9344bb	-0.07190844
78	0x3daa759e	0.08323215
79	0xbe30d3a5	-0.17268236
80	0x3d3f586b	0.04671518
81	0xbd5f3bfe	-0.054500572
82	0xbcd665ea	-0.026171643
83	0xbd992148	-0.07477051
84	0xbd1cf983	-0.03832389
85	0xbe345550	-0.17610669
86	0x3d7347db	0.0593947
87	0xbd545ce3	-0.051846396
88	0x3d7178a9	0.05895296
89	0x3d745c62	0.059658416
90	0xbe05b364	-0.13056713
91	0x3ed3f8ab	0.41400656
92	0xbbedb60e	-0.0072543686
93	0x3da1f7cd	0.079085924
94	0xbe8708f7	-0.26374027
95	0xbeb5f2b8	-0.35536742
96	0xbf29988e	-0.66248405
97	0xbdf7fbaf	-0.12108552
98	0x3eb66e06	0.35630816
99	0x3f48980c	0.78357005
100	0xbee55b49	-0.44796208
101	0xbecffcdc	-0.40622604
102	0x3e841aa1	0.25801566
103	0x3eb8b0de	0.3607244
104	0x3da1f759	0.07908506
105	0xbe1fba7b	-0.1559848
106	0xbee0fe54	-0.43944037
107	0x3eb6c299	0.3569534
108	0x3f1d8738	0.6153445
109	0x3f476338	0.7788577
110	0x3e514f1e	0.20440337
111	0xbd19ae7c	-0.037519917
112	0xbdc7cca1	-0.09755827
113	0xbcf42c5b	-0.029806307
114	0xbd07042a	-0.032962956
115	0x3d78acb4	0.060711578
116	0xbddd278e	-0.1079856
117	0xbcaa0a42	-0.020756844
118	0xbd8198c2	-0.06327964
119	0xbdb32dbb	-0.08748957
120	0x3d8cab29	0.06868584
121	0xbd09ecd3	-0.03367312
122	0x3cfcb9cd	0.030850315
123	0x3dcbbaff	0.09947776
124	0xbe45304d	-0.19256707
125	0xbd1adbfa	-0.037807442
126	0x3d826965	0.06367759
127	0xbe4cd1d2	-0.20001915
128	0x3e43dd2f	0.19127344
129	0xbeb25e68	-0.3483765
130	0xbc5d7083	-0.013515594
131	0x3e196ded	0.1498334
132	0xbdd860ac	-0.10565314
133	0xbd01a157	-0.031648006
134	0x3e3b26cc	0.18276519
135	0xbee6d547	-0.45084593
136	0x3f3bb153	0.7331745
137	0xbee44f48	-0.44591737
138	0x3e149c15	0.14512666
139	0xbc1be2bf	-0.00951451
140	0x3d9216e6	0.07133274
141	0xbfa05e6c	-1.2528815
142	0xbe71c9e3	-0.2361217
143	0x3e148217	0.1450275
144	0x3f817f87	1.0117043
145	0x3f28296c	0.65688205
146	0x3ed0eff0	0.40808058
147	0xbe415176	-0.18878731
148	0x3e22590a	0.15854278
149	0xbe461b41	-0.19346334
150	0xbfde5cce	-1.7372072
151	0xc025ed60	-2.5926132
152	0xbf44ddff	-0.7690124
153	0xbe0f10cd	-0.13971253
154	0xbe2b7de5	-0.16747244
155	0xbe0cc937	-0.13748632
156	0x3a8d203a	0.001076705
157	0xbb1eb180	-0.0024214685
158	0x3d4435c5	0.04790284
159	0xbc7a3174	-0.01527058
160	0xbd4123c1	-0.04715324
161	0x3d0bc4d2	0.03412325
162	0xbccb4180	-0.024811506
163	0x3ca89660	0.020579517
164	0xbcf3c234	-0.02975569
165	0xbdbf5400	-0.093421936
166	0x3cc39a6c	0.023877345
167	0xbd4382b7	-0.04773208
168	0x3e3d090c	0.18460482
169	0x3d65c0de	0.056092136
170	0xbd03442f	-0.032047447
171	0x3d92b4b1	0.071633704
172	0xbbf43cf9	-0.0074535576
173	0x3d7437db	0.05962358
174	0x3d94c75e	0.07264589
175	0x3c457a4c	0.012053084
176	0xbd53d02b	-0.051712196
177	0x3d681712	0.056662627
178	0x3c981c0c	0.018568061
179	0xbe23ed8c	-0.16008586
180	0xbef16932	-0.4715057
181	0x3d8bc7c4	0.06825212
182	0x3f151d28	0.58247614
183	0xbd4a2ae1	-0.0493573
184	0x3e318328	0.17335188
185	0xbe496240	-0.19666386
186	0x3f6af427	0.91778797
187	0x3fe67ec0	1.8007431
188	0x3e032bb3	0.12809639
189	0xbf4b12ef	-0.79325765
190	0xbf768447	-0.9629559
191	0xbf103691	-0.5633326
192	0xbec0ddd1	-0.37669232
193	0xbd86fc07	-0.06591039
194	0xbf7d7963	-0.99013346
195	0xbcdd6315	-0.027024785
196	0xbecfec2c	-0.40609872
197	0x3f5df2f5	0.8669885
198	0x3f38b1fa	0.7214657
199	0xbe18ad2e	-0.14909813
200	0xbf29ea2e	-0.66372955
201	0xbd3d17c5	-0.046165247
202	0x3d36f5fb	0.04466818
203	0x3d61b7ba	0.055106856
204	0xbb5050de	-0.0031786482
205	0x3cb4df2c	0.022079073
206	0xbada3ab2	-0.0016649573
207	0x3d5fb580	0.05461645
208	0x3cc56010	0.024093658
209	0x3d3042ab	0.04303233
210	0x3d791e3b	0.060819846
211	0xbcdd1a16	-0.026989978
212	0x3b952061	0.004550979
213	0xbda09a73	-0.07841959
214	0xbe7ee8d4	-0.24893504
215	0x3d28150e	0.041035704
216	0xbd468e35	-0.048475463
217	0x3d47f9e2	0.04882229
218	0x3c799e82	0.015235545
219	0x3df6206a	0.12017901
220	0x3e8b5edf	0.27220818
221	0x3b935e8e	0.004497356
222	0x3dd55207	0.10416036
223	0x3d7ea49d	0.062168706
224	0x3dae99c9	0.08525426
225	0xbf1bb66b	-0.6082522
226	0x3f6b419f	0.91897005
227	0x3e2877f2	0.16452006
228	0x3e2c5fc5	0.16833408
229	0x3eabaf94	0.33532393
230	0x3bef9cb2	0.0073123807
231	0x40100369	2.2502081
232	0xbf2def8c	-0.67943645
233	0x3ea00fdc	0.312621
234	0x3cf03ff5	0.029327372
235	0xbf4de6c0	-0.8043022
236	0xbf0402a3	-0.51566523
237	0xbe877c0c	-0.26461828
238	0xbebb2eff	-0.36559293
239	0x3f96bfbd	1.1777264
240	0xbd8c3fca	-0.06848104
241	0x3efc7745	0.49309745
242	0xbf05c0e6	-0.52247465
243	0xbe9366bd	-0.2878932
244	0xbf124f03	-0.5715181
245	0xbd1a9aa2	-0.037745126
246	0xbd05b060	-0.032638907
247	0xbd140f63	-0.036147486
248	0xbd7e7cb6	-0.062130652
249	0xbdd0ad1b	-0.10189267
250	0xbdc289dc	-0.09498951
251	0x3d384de1	0.044996146
252	0xbd3c5883	-0.04598285
253	0xbd9283db	-0.07154056
254	0xbd052d2f	-0.032513794
255	0xbd937957	-0.07200878

actor.0.bias f4 [256]
0	0xbee93d95	-0.45554796
1	0xbe3c7d9e	-0.18407294
2	0xbebe2a7c	-0.37141788
3	0xbe8ee47f	-0.27908704
4	0xbebf9825	-0.37420765
5	0xbdb02df2	-0.086025134
6	0xbdf9f308	-0.12204558
7	0x3c4a3d92	0.012343781
8	0xbebe7c57	-0.3720424
9	0xbee66cb1	-0.450048
10	0x3edbc1fa	0.4292143
11	0xbe1fe862	-0.15615991
12	0xbec46721	-0.3835993
13	0x3e7b0e2c	0.24517125
14	0xbe917bb5	-0.28414693
15	0xbed17e58	-0.40916705
16	0x3e12fe08	0.14354718
17	0x3c2f6238	0.0107045695
18	0xbde5dca8	-0.112237275
19	0x3b219b41	0.002465919
20	0xbea133cd	-0.31484833
21	0xbd8d2110	-0.06891072
22	0xbf077542	-0.52913296
23	0xbe3324a9	-0.17494453
24	0xbecbf902	-0.39838415
25	0x3e13171b	0.14364283
26	0xbe674854	-0.22586185
27	0x3d2e8d28	0.042615086
28	0xbe8ace5e	-0.2711057
29	0xbde8db76	-0.11369984
30	0xbe77fef4	-0.2421835
31	0xbe3f805a	-0.18701306
32	0x3e5f4c0a	0.2180635
33	0x3e7196af	0.23592637
34	0xbc3a2f6c	-0.011363845
35	0xbde73df7	-0.11291116
36	0xbe0b7802	-0.13619998
37	0xbe7a63ff	-0.24452208
38	0xbea3afc3	-0.31970033
39	0x3dd3e4e3	0.10346391
40	0xbedf6f6a	-0.4363969
41	0xbe0fe9d7	-0.14054047
42	0xbeae24c9	-0.3401244
43	0x3d0fbf86	0.03509476
44	0xbe3a33ef	-0.18183874
45	0xbe48d56e	-0.19612667
46	0x3e9816d0	0.29704905
47	0x3e09e9b1	0.13468052
48	0xbe2ed863	-0.17074732
49	0xbeb67085	-0.3563272
50	0xbe0e0fbd	-0.13873191
51	0x3e0459ab	0.1292483
52	0x3e4af33a	0.19819346
53	0xbe64d4b9	-0.22346772
54	0xbef7cfe0	-0.48400784
55	0xbe1205e0	-0.14260054
56	0xbf073785	-0.5281909
57	0x3dc99728	0.09843284
58	0x3e31cfb8	0.17364395
59	0x3ea07547	0.31339476
60	0xbe2d4ad1	-0.16923071
61	0xbe907f58	-0.28222156
62	0xbe0bc492	-0.13649204
63	0xbe63a6c7	-0.2223159
64	0xbe006b0f	-0.1254084
65	0xbea278ca	-0.3173278
66	0x3d1412f2	0.03615088
67	0xbe485438	-0.19563377
68	0xbe5c031e	-0.21485564
69	0xbda5f7cd	-0.08103905
70	0x3ce8b5e4	0.028407045
71	0x3e1fd476	0.15608391
72	0xbee35083	-0.44397363
73	0xbdc37d07	-0.095453314
74	0xbf01d04b	-0.50708455
75	0x3e3dd06d	0.1853654
76	0xbe48d720	-0.19613314
77	0xbe7eab24	-0.24869972
78	0xbddc01c3	-0.107425235
79	0x3d010e70	0.03150791
80	0xbe41c74c	-0.18923682
81	0x3df1349f	0.11777615
82	0xbf072b12	-0.52800095
83	0xbb86406a	-0.004097034
84	0xbee64a0e	-0.44978374
85	0x3e4fc057	0.20288216
86	0xbe99199a	-0.29902345
87	0xbf0ab061	-0.5417538
88	0x3bf210cb	0.007387256
89	0xbebe5145	-0.3717138
90	0xbf16ffc3	-0.5898401
91	0xbbe7a507	-0.0070692333
92	0xbeda8c21	-0.42685035
93	0x3e0f410e	0.1398966
94	0x3c6c7c4a	0.01443393
95	0xbeb0a54f	-0.3450112
96	0xbe62c5e7	-0.22145806
97	0xbd39f3eb	-0.045398634
98	0xbeb35e13	-0.3503271
99	0xbdec6621	-0.11542917
100	0xbc660c2e	-0.01404099
101	0xbbdbd3ab	-0.0067085824
102	0xbc20d929	-0.0098174
103	0xbe67157c	-0.2256679
104	0xbd45bfbd	-0.04827856
105	0xbebd3c4e	-0.3696007
106	0xbcf7adac	-0.03023418
107	0xbebd4831	-0.3696914
108	0xbdd86339	-0.105658
109	0xbd30a883	-0.043129455
110	0x3d9760dd	0.07391522
111	0xbf0c510b	-0.5481116
112	0xbea7f9ed	-0.32807866
113	0xbd910e85	-0.070828475
114	0x3ebb7205	0.36610427
115	0xbe60a7f5	-0.2193907
116	0xbe3abd59	-0.18236293
117	0xbcb3dca4	-0.021955796
118	0x3bcde581	0.0062834625
119	0x3df02f3d	0.1172776
120	0xbf15ab93	-0.58464926
121	0xbe7ba3f5	-0.24574263
122	0xbebed980	-0.37275314
123	0xbef4ec70	-0.47836637
124	0xbee59999	-0.44843748
125	0x3d20cd2d	0.03925817
126	0x3e75f329	0.2401854
127	0x3d79fb55	0.061030705
128	0xbf03b52b	-0.51448315
129	0x3e05477f	0.13015555
130	0x3d49df87	0.049285438
131	0xbedffd77	-0.43748066
132	0xbdfcad29	-0.12337715
133	0xbe6b1e2f	-0.22960733
134	0xbe5bbeba	-0.21459475
135	0xbd4ebcfe	-0.050473206
136	0xbda3bd67	-0.0799511
137	0xbe55a381	-0.20863153
138	0xbd493bbc	-0.049129233
139	0xbe288f6a	-0.16460958
140	0x3db72036	0.089416906
141	0xbeb938d6	-0.36176175
142	0x3e074ba9	0.13212456
143	0xbe398627	-0.18117581
144	0xbe45561a	-0.19271126
145	0xbe0e885d	-0.13919206
146	0xbdd6b87d	-0.10484407
147	0xbeb3a3c1	-0.35085872
148	0xbe55f333	-0.20893554
149	0xbe97922a	-0.29603702
150	0xbd0dbc16	-0.0346032
151	0xbdc7c5fd	-0.0975456
152	0x3ecc2e11	0.39878896
153	0xbec8840d	-0.39163247
154	0xbe6d9f71	-0.23205353
155	0xbed8cf90	-0.42345858
156	0xbee38070	-0.44433928
157	0xbe849188	-0.25892282
158	0xbf0a89a5	-0.5411628
159	0x3dd91947	0.106005244
160	0xbde14c69	-0.11000902
161	0xbea960e8	-0.33081746
162	0x3dc51a2c	0.096241325
163	0xbe1e6b4b	-0.15470617
164	0x3e3f37cd	0.1867363
165	0x3dfe1b3f	0.124075405
166	0xbdb226f6	-0.086988375
167	0xbe985fd9	-0.29760626
168	0xbeb880eb	-0.36035857
169	0x3da2778b	0.07932957
170	0x3de4cc88	0.11171824
171	0xbe47c7b5	-0.19509776
172	0xbe19a84a	-0.15005603
173	0x3e7351b3	0.23761635
174	0xbd9f85e0	-0.077892065
175	0x3d1bb447	0.038013723
176	0xbe919434	-0.28433383
177	0xbe81c8eb	-0.253486
178	0xbe884743	-0.26616868
179	0x3d20f77b	0.039298516
180	0x3d60dc96	0.054897867
181	0xbe6bfea2	-0.23046353
182	0xbe87cebd	-0.26524916
183	0xbd752db3	-0.059858035
184	0xbc2f9c1b	-0.010718371
185	0xbea1a662	-0.31572253
186	0xbed3ee26	-0.4139263
187	0xbc1159cd	-0.008871508
188	0x3e823387	0.25429937
189	0xbe50d4d7	-0.20393692
190	0x3db7754b	0.08957919
191	0xbe3add57	-0.18248497
192	0xbeb80c41	-0.3594685
193	0xbe230013	-0.15917997
194	0x3d94fdc0	0.072749615
195	0xbcef8743	-0.029239303
196	0xbe78bd71	-0.24291016
197	0x3e8bc694	0.2729994
198	0x3e55c426	0.20875606
199	0xbd3d2817	-0.04618081
200	0xbe61a9c2	-0.22037414
201	0xbd68dde9	-0.056852255
202	0x3d61180f	0.054954585
203	0xbd9a22f3	-0.07526197
204	0xbe5cea5e	-0.21573779
205	0xbdebcdef	-0.11513888
206	0x3d28a4f8	0.04117295
207	0xbc5bffb8	-0.013427667
208	0xbe3f0e91	-0.186579
209	0xbe6dfde0	-0.23241377
210	0x3e43acfb	0.19108956
211	0xbec75512	-0.3893209
212	0xbe738c0c	-0.23783892
213	0x3d276155	0.040864307
214	0x3d7022a5	0.05862679
215	0x3ed51a4c	0.41621625
216	0xbd7bf46b	-0.061512392
217	0xbe1be939	-0.15225686
218	0x3d47c3a1	0.04877055
219	0xbe9562f1	-0.2917705
220	0xbeafc972	-0.34333378
221	0xbe1f0a25	-0.15531214
222	0xbe27dae9	-0.16392101
223	0x3e03cdf5	0.12871535
224	0xbe7d11cf	-0.24713825
225	0x3e33a3b4	0.17542917
226	0x3df73752	0.120710984
227	0x3e96faac	0.29488122
228	0xbe9874e0	-0.2977667
229	0xbf0caadb	-0.54948205
230	0xbd67e970	-0.056619108
231	0xbae86b98	-0.0017732261
232	0xbe2f3f4c	-0.1711399
233	0xbdeece67	-0.11660462
234	0xbe3dcea3	-0.18535857
235	0xbe92e3a2	-0.28689295
236	0xbda55b67	-0.08074074
237	0xbd2343aa	-0.03985945
238	0xbe806149	-0.25074223
239	0x3c5c6f58	0.013454281
240	0x3d47aecb	0.04875068
241	0xbf368e04	-0.7131045
242	0xbe84a591	-0.25907567
243	0xbda13d34	-0.07873002
244	0xbe0331f0	-0.12812018
245	0xbdaebac6	-0.08531718
246	0xbe8e0608	-0.27738976
247	0xbe636860	-0.22207785
248	0xbec509dc	-0.38484085
249	0xbe20e4f5	-0.1571234
250	0xbeb34046	-0.35009974
251	0xbeeb4905	-0.45954147
252	0xbd58dddc	-0.052945957
253	0xbd2b3810	-0.041801512
254	0xbec9d129	-0.3941739
255	0x3e5aa461	0.21351768

actor.2.weight f4 [128, 256]
0	0xbe419767	-0.18905412
1	0x3d91980a	0.07109077
2	0x3d6b0174	0.057374433
3	0x3ca805c4	0.020510562
4	0x3e890239	0.26759508
5	0xbd2a368a	-0.04155592
6	0x3dc6ba92	0.09703554
7	0xbde7b6b6	-0.11314146
8	0xbe5d766f	-0.2162721
9	0x3deb232b	0.11481317
10	0xbe14b936	-0.14523777
11	0xbdf1f8b3	-0.11815014
12	0x3c5ae790	0.013360873
13	0x3da62cfc	0.08114049
14	0x3c811c88	0.015760675
15	0x3e53dd3e	0.20689866
16	0xbd87f616	-0.06638734
17	0xbd49beb9	-0.049254153
18	0xbeb54911	-0.35407308
19	0xbe92292e	-0.28547043
20	0xbd9ad067	-0.07559281
21	0x3ddc816c	0.10766873
22	0x3e2d28f0	0.16910148
23	0xbde57c83	-0.11205389
24	0x3dcfa5ca	0.10139044
25	0xbdb4c8fb	-0.088273965
26	0xbc7d396a	-0.015455583
27	0xbc8887d9	-0.01666634
28	0x3ea184e6	0.31546706
29	0x3d6d8cd8	0.057995647
30	0xbdb4fb95	-0.08837048
31	0x3d8f229e	0.069890246
32	0xbe55c120	-0.20874453
33	0xbc8a91c7	-0.016915215
34	0x3cb72ada	0.0223593
35	0xbdb5641e	-0.088569865
36	0xbdc77836	-0.09739725
37	0x3e1c8795	0.15286095
38	0x3d9b699e	0.07588504
39	0xbe5b0355	-0.2138799
40	0xbe210e8d	-0.15728207
41	0x3e3dd990	0.18540025
42	0xbdeeea63	-0.116657995
43	0xbde78de7	-0.113063626
44	0xbe8d09b5	-0.27546468
45	0xbe849664	-0.2589599
46	0xbb0e4bcc	-0.002171266
47	0xb9b5fc9a	-0.00034711213
48	0x3d3e8d08	0.046521217
49	0x3d4d4c8f	0.05012184
50	0x3d0f0cbd	0.034924258
51	0x3d36bd7c	0.0446143
52	0xbd19c8e2	-0.037545092
53	0x3eb754dd	0.35806933
54	0xba783027	-0.00094676245
55	0x3e8d1db8	0.27561736
56	0x3ed0952a	0.40738803
57	0xbe04cd30	-0.12968898
58	0xbdbd97ca	-0.09257467
59	0xbe44d18b	-0.1922056
60	0x3dfab5ad	0.12241683
61	0x3e463cb4	0.19359094
62	0x3de4552c	0.11149058
63	0x3dd02ff7	0.101653986
64	0x3eadf109	0.33972958
65	0xbd873027	-0.06600981
66	0x3d406a14	0.046976164
67	0x3d22cb67	0.03974476
68	0xbdb4c633	-0.08826866
69	0xbd0d9567	-0.03456631
70	0x3e2ea52f	0.170552
71	0x3e3d4aac	0.18485516
72	0xbeaac67f	-0.33354566
73	0xbd01dda7	-0.031705525
74	0x3e7c94fa	0.24666205
75	0xbaa2cf4e	-0.0012421401
76	0x3d696b66	0.05698719
77	0x3e56db86	0.20982179
78	0xbd7148fd	-0.058907498
79	0x3d9c4feb	0.07632431
80	0x3d9779dc	0.0739629
81	0xbc670bad	-0.014101905
82	0x3d9bdfe6	0.076110646
83	0x3e0ac732	0.1355255
84	0x3cf6a8fa	0.030109871
85	0xbd44e697	-0.04807147
86	0x3dc2e36e	0.09516035
87	0x3d235d7f	0.039884087
88	0xbd2f531f	-0.04280388
89	0xbb03b77e	-0.0020098384
90	0xbc323805	-0.010877614
91	0xbd5017c8	-0.05080393
92	0x3e60b25a	0.21943036
93	0xbe7c4d5a	-0.24638882
94	0xbd8dac61	-0.06917644
95	0x3d803db2	0.062617674
96	0x3e700744	0.23440272
97	0xbd22e0ec	-0.039765283
98	0x3e5c2d11	0.21501566
99	0xbdcc7ab1	-0.09984339
100	0x3d69cc4b	0.057079595
101	0x3e576934	0.21036226
102	0xbe0afc50	-0.13572812
103	0x3e26b1f6	0.16278824
104	0xbdc51d3e	-0.09624718
105	0x3e12f3cb	0.14350812
106	0x3da5bd59	0.08092756
107	0x3e5189ad	0.20462675
108	0xbd9843ff	-0.07434844
109	0xbe190ffd	-0.14947505
110	0x3e4194f5	0.18904479
111	0x3e5688d1	0.20950629
112	0x3edeb6dc	0.43498886
113	0xbdb5dedb	-0.08880397
114	0xbddc40ad	-0.107545234
115	0x3da9b05f	0.08285593
116	0xbef50f80	-0.47863388
117	0x3cc4c7b1	0.024021002
118	0xbdadea4a	-0.08491953
119	0xbe887409	-0.26651028
120	0x3e98a348	0.29812074
121	0xbdc33f91	-0.09533609
122	0x3dc67f81	0.09692288
123	0x3dfcc629	0.123424836
124	0xbe8c311f	-0.27381226
125	0xbe0ddf69	-0.13854755
126	0xbeaaea95	-0.33382097
127	0x3c699c31	0.01425843
128	0x3ed54950	0.41657495
129	0x3db2d11e	0.08731292
130	0x3e25f717	0.16207539
131	0x3e31e08f	0.17370819
132	0x3d846242	0.06464054
133	0x3e1dccc0	0.15410137
134	0x3c87c410	0.016572982
135	0xbd503011	-0.05082709
136	0xbc5c6f68	-0.013454296
137	0x3e976d68	0.29575658
138	0xbe7a83ac	-0.24464291
139	0x3c1bdb9c	0.009512808
140	0xbc988de6	-0.01862235
141	0x3cbec72b	0.02328833
142	0x3e019411	0.12654139
143	0xbe4bf10b	-0.1991617
144	0xbdadb29b	-0.08481332
145	0xbe38d464	-0.1804977
146	0x3be1be76	0.00688916
147	0xbe4e0565	-0.20119245
148	0x3eca43b8	0.3950479
149	0xbe0de25c	-0.1385588
150	0x3d0b54da	0.034016468
151	0x3e8dca8f	0.27693602
152	0xbd28a0dd	-0.041169036
153	0x3e440828	0.19143736
154	0xbe133139	-0.14374246
155	0x3e928cac	0.2862295
156	0x3eb8a848	0.36065888
157	0x3de17066	0.110077664
158	0xbd9e04d7	-0.07715767
159	0x3d4edfc6	0.050506376
160	0xbe5ee7c1	-0.21768095
161	0x3d6ceefa	0.057845093
162	0xbd58222e	-0.05276697
163	0x3e471114	0.19440109
164	0x3e16e5e9	0.14736141
165	0xbd4eaa63	-0.050455462
166	0x3e51b697	0.20479809
167	0x3cf07e2a	0.029357035
168	0x3e255d07	0.16148768
169	0xbdd4ef9c	-0.10397264
170	0xbe08bdde	-0.13353679
171	0xbcb937b4	-0.02260957
172	0xbe96ca0d	-0.29451028
173	0xbdefa2cb	-0.11700972
174	0x3de57be8	0.11205274
175	0xbc9cfd96	-0.019163888
176	0x3b9925ab	0.00467368
177	0xbd8b5fa9	-0.06805355
178	0xbceeaf1e	-0.029136237
179	0xbe5a2e94	-0.2130683
180	0x3c2f21fe	0.010689257
181	0xbddf126b	-0.10892185
182	0xbb9cd851	-0.004786529
183	0xbdd5b155	-0.10434214
184	0x3d2398f6	0.039940797
185	0x3bc9ce2f	0.006158612
186	0x3dce42cc	0.10071334
187	0xbdeb6836	-0.11494486
188	0xbe1dce2c	-0.1541068
189	0x3d94885f	0.07252573
190	0xbc5073fd	-0.012722966
191	0x3e340ae0	0.17582273
192	0xbe290c34	-0.16508561
193	0x3deb872a	0.1150039
194	0xbe58a448	-0.21156418
195	0x3ded7c26	0.11595945
196	0x3e815271	0.2525821
197	0x3cd02aba	0.025410999
198	0xbe90bb1a	-0.28267747
199	0xbe2013e1	-0.15632583
200	0x3ce32c43	0.027731067
201	0xbdb67d43	-0.089106105
202	0x3e2192ee	0.15778705
203	0x3d8f649d	0.07001612
204	0x3e34a8fc	0.17642587
205	0xbe3da9d8	-0.18521821
206	0x3d30d8e4	0.043175593
207	0xbddb5ac2	-0.1071067
208	0xbd0accc6	-0.033886693
209	0x3e7df67a	0.24801055
210	0xbeba1630	-0.36345053
211	0x3e7c6bff	0.24650572
212	0xbccc371a	-0.024928618
213	0xbc432769	-0.011911252
214	0x3d9c80b2	0.07641734
215	0x3de24359	0.11048002
216	0x3dc7b98b	0.097521864
217	0x3e312179	0.17297925
218	0x3d1faf21	0.038985375
219	0x3e0914f0	0.13386893
220	0xbbdd5caa	-0.006755431
221	0x3dd74ccd	0.105126955
222	0xbd798560	-0.060918212
223	0x3e0e4e75	0.13897116
224	0x3ded543c	0.11588332
225	0x3d69f188	0.057115108
226	0xbd985613	-0.07438292
227	0xbe799630	-0.24373698
228	0x3e8688c1	0.2627621
229	0x3e232033	0.15930252
230	0xbeae2268	-0.34010625
231	0xbd5572e0	-0.052111506
232	0xbd0007d5	-0.03125747
233	0xbcaefab8	-0.021359786
234	0xbd21bc7e	-0.0394864
235	0xbe037e2b	-0.12841098
236	0x3df9e255	0.122013725
237	0xbc391d85	-0.011298542
238	0xbcda5c50	-0.026655346
239	0xbe55fd29	-0.20897354
240	0xbe1acf00	-0.15118027
241	0xbcedc943	-0.029026633
242	0x3d20f728	0.039298207
243	0xbd5642ab	-0.052309673
244	0x3e4edab5	0.20200618
245	0x3ca823d6	0.0205249
246	0xbdf736fc	-0.12071034
247	0x3e0d7401	0.13813783
248	0x3e6e848e	0.23292753
249	0xbce74b0d	-0.02823403
250	0xbdbca499	-0.09211082
251	0x3da28bf4	0.0793685
252	0x3dcbc847	0.09950309
253	0x3e24e6fe	0.16103742
254	0xbd9a311d	-0.07528899
255	0x3dc1f4a3	0.09470489

actor.2.bias f4 [128]
0	0xbe8819c8	-0.2658217
1	0xbe99f79c	-0.30071723
2	0xbd891f65	-0.06695441
3	0xbe17fee2	-0.14843324
4	0xbe0078c0	-0.12546062
5	0xbe21e85b	-0.15811293
6	0xbe6a34ce	-0.22871706
7	0xbe8a41a1	-0.27003196
8	0xbca83f09	-0.02053787
9	0xbe04860f	-0.12941764
10	0xbe61582d	-0.22006293
11	0xbd35eef0	-0.04441732
12	0xbdbefb32	-0.093252555
13	0xbe97f17b	-0.29676422
14	0xbd7a57bc	-0.061118826
15	0xbef31767	-0.47478792
16	0xbe8a70cb	-0.2703918
17	0xbe15dd3c	-0.14635175
18	0xbe286fa0	-0.16448832
19	0xbe89ea01	-0.26936343
20	0xbde73723	-0.11289813
21	0xbe24cbde	-0.16093394
22	0xbd9828f5	-0.07429687
23	0xbe0a26ea	-0.13491407
24	0xbe4f8ea3	-0.20269255
25	0xbebb50d5	-0.36585107
26	0xbe9675a6	-0.29386634
27	0x3e3bd3f9	0.1834258
28	0xbe9c7078	-0.30554557
29	0xbe5a6c86	-0.21330461
30	0xbebaa0ba	-0.3645075
31	0xbee85275	-0.4537541
32	0xbe015c8e	-0.12632963
33	0xbf0a11e1	-0.5393353
34	0x3d55ec43	0.05222727
35	0xbf1278d1	-0.572156
36	0xbe67a59e	-0.22621772
37	0xbd9e64fc	-0.07734105
38	0xbe9f2004	-0.31079113
39	0xbe4c7647	-0.19966994
40	0x3d9d0d8e	0.07668601
41	0xbdc02196	-0.09381406
42	0xbdad2b80	-0.084555626
43	0xbe9a7adf	-0.30171868
44	0xbd654c20	-0.0559808
45	0xbdc2b53e	-0.095072255
46	0xbdd97c25	-0.10619382
47	0xbe77cc73	-0.24199085
48	0xbe8ba94e	-0.27277607
49	0xbe62f4c8	-0.22163689
50	0xbe849816	-0.25897282
51	0xbdfcd91b	-0.12346097
52	0xbe4142a9	-0.18873085
53	0xbe20dbc5	-0.15708835
54	0xbe2dc9c7	-0.16971503
55	0xbe252014	-0.16125518
56	0xbe3a0a8c	-0.18168086
57	0xbe9183c9	-0.28420857
58	0xbe154ab2	-0.14579275
59	0x3d0c74ed	0.034291197
60	0xbe853d8f	-0.26023528
61	0xbd01b025	-0.031662125
62	0xbe815f19	-0.25267866
63	0xbc600e5d	-0.0136752995
64	0xbe6a1a55	-0.22861607
65	0xbe864d76	-0.26230973
66	0xbe81509d	-0.25256816
67	0xbe0d8ee2	-0.13824037
68	0xbe940c51	-0.28915647
69	0x3cfc2558	0.030779526
70	0xbcf73741	-0.030177714
71	0xbe61030e	-0.21973822
72	0xbea63a81	-0.3246651
73	0xbe8d037d	-0.27541724
74	0xbeb58834	-0.35455477
75	0xbe907b2e	-0.2821898
76	0xbc9c73ba	-0.019098151
77	0xbea43520	-0.3207178
78	0xbe86f82a	-0.2636121
79	0xbdf1a331	-0.117987044
80	0xbe098371	-0.13429047
81	0xbceaacfb	-0.028646937
82	0xbe38ba28	-0.18039763
83	0xbecd6733	-0.40117797
84	0xbe42fbd7	-0.19041382
85	0xbcf3a8dc	-0.029743604
86	0x3bca67cc	0.0061769243
87	0xbe39ea51	-0.18155791
88	0xbe9e5934	-0.30927432
89	0xbe5ed3b3	-0.21760444
90	0xbdd430e8	-0.103608906
91	0xbe35aa97	-0.17740856
92	0xbda9ad05	-0.08284954
93	0xbe4cf8ce	-0.20016786
94	0x3c32d84b	0.010915826
95	0x3e3ccdbd	0.18437858
96	0xbecf4cda	-0.4048832
97	0xbea908af	-0.33014438
98	0xbe90a3b4	-0.28249896
99	0xbd916497	-0.07099264
100	0xbe8a5cc4	-0.270239
101	0xbea1caad	-0.31599942
102	0x3ea7a848	0.32745576
103	0xbe4d5113	-0.20050459
104	0xbe4a0638	-0.19728935
105	0xbe2bc850	-0.16775632
106	0xbe960552	-0.29300934
107	0xbe61e4ee	-0.22059986
108	0xbdf7bd73	-0.120966814
109	0xbe17ffc6	-0.14843664
110	0xbec00650	-0.37504816
111	0xbe6ed181	-0.23322107
112	0xbe8b8a23	-0.27253827
113	0x3d88e3e9	0.066840954
114	0xbec46d3d	-0.38364592
115	0xbe85d06a	-0.2613557
116	0xbdcb36ed	-0.09922586
117	0xbd8077b5	-0.06272832
118	0xbe44621e	-0.19178054
119	0xbef3db32	-0.4762817
120	0xbe862ead	-0.26207486
121	0xbe3000ac	-0.17187756
122	0xbe106047	-0.14099227
123	0xbeeae37b	-0.4587668
124	0xbe8030bd	-0.25037184
125	0xbe4dfd91	-0.20116259
126	0xbebc60e4	-0.36792672
127	0xbec3df1a	-0.3825615

actor.4.weight f4 [128, 128]
0	0xbe0c9bdb	-0.13731329
1	0xbe1dc983	-0.15408902
2	0xbd2def37	-0.04246446
3	0xbdc9bc56	-0.09850375
4	0xbdd6fc5c	-0.104973525
5	0x3d4870d1	0.048935715
6	0x3d1ba06b	0.037994783
7	0x3bb50356	0.0055240793
8	0xbe29c948	-0.16580689
9	0x3dc8be25	0.09801892
10	0xbdf4ff45	-0.11962751
11	0xbdd86614	-0.10566345
12	0xbe159fa7	-0.14611684
13	0x3e2dde90	0.16979432
14	0xbdcf79e3	-0.1013067
15	0x3da0a2c9	0.07843549
16	0x3daafb30	0.083486915
17	0x3d8982ee	0.06714426
18	0x3d2df7e7	0.042472746
19	0xbe21bcfc	-0.15794748
20	0xbe9152f2	-0.28383595
21	0xbecd58c5	-0.40106788
22	0xbdae78a5	-0.08519105
23	0xbe302828	-0.17202818
24	0x3d23ca20	0.039987683
25	0x3cfec285	0.031098614
26	0xbe4fa888	-0.20279133
27	0x3cac312b	0.021019539
28	0xbca5dccd	-0.020246888
29	0x3e53d2d1	0.20685889
30	0x3da0d972	0.078539744
31	0x3c74915e	0.014927236
32	0xbeffaa66	-0.4993469
33	0xbd0788ca	-0.033089437
34	0xbe47d785	-0.19515808
35	0x3c338167	0.010956145
36	0xbe84132b	-0.25795874
37	0xbebba242	-0.3664723
38	0xbd89391e	-0.06700347
39	0x3e39bf78	0.18139446
40	0xbea811cf	-0.32826087
41	0xbdfe9dfb	-0.12432476
42	0xbe917d4e	-0.28415912
43	0x3ec42de8	0.38316274
44	0x3e91cf02	0.28478247
45	0xbe2f6459	-0.17128123
46	0x3e0948ae	0.13406631
47	0x3e86208c	0.26196706
48	0x3da518cb	0.080613695
49	0xbd44f095	-0.048081
50	0x3e713b25	0.23557718
51	0x39c12a6f	0.00036843444
52	0x3e3f048d	0.1865408
53	0xbd7905d8	-0.06079659
54	0x3e026b28	0.1273619
55	0x3e26c04a	0.1628429
56	0x3e8244bb	0.25443062
57	0xbdeda19a	-0.11603089
58	0xbe1e85ef	-0.15480779
59	0xbe49e1c9	-0.19715036
60	0xbd07c8f3	-0.033150624
61	0xbe88586c	-0.2662996
62	0xbda2e06f	-0.079529636
63	0xbdbad210	-0.091220975
64	0x3e156e26	0.145928
65	0xbe4f7400	-0.20259094
66	0xbe68c6b9	-0.22732057
67	0xb864aa0e	-5.451781e-05
68	0x3d713374	0.05888696
69	0xbeb79150	-0.35853052
70	0xbc9afec7	-0.018920315
71	0x3e368674	0.17824727
72	0x3e8248ff	0.25446317
73	0x3e2caa65	0.16861875
74	0xbe016461	-0.12635948
75	0x3c81e805	0.015857706
76	0xbe5b7192	-0.21430042
77	0x3e1b528a	0.15168205
78	0x3d990c2a	0.07473023
79	0xbd59ac22	-0.053142674
80	0x3db1cddf	0.08681845
81	0xbdc21f84	-0.094786674
82	0x3c899117	0.016792817
83	0x3e724134	0.23657686
84	0xbe5f6d39	-0.21819009
85	0xbc7db854	-0.015485842
86	0xbdb276d7	-0.08714073
87	0x3daa2092	0.083069935
88	0xbc704043	-0.014663759
89	0x3e25aa40	0.16178226
90	0xbe06badc	-0.13157219
91	0xbe89170d	-0.267754
92	0xbe05a332	-0.13050535
93	0xbe2414e6	-0.16023597
94	0xbe1a80bc	-0.15088171
95	0x3e2209c7	0.15824042
96	0x3ed94084	0.42432034
97	0xbdf18fe2	-0.117950216
98	0x3e796170	0.24353576
99	0x3e225d49	0.15855898
100	0x3e8f3d22	0.27976328
101	0x3dc6d96e	0.0970944
102	0xbe297d43	-0.1655169
103	0x3e09f04e	0.13470575
104	0xbd914c39	-0.070946164
105	0xbea23b96	-0.31686085
106	0xbe970953	-0.294993
107	0xbe6718e9	-0.22568096
108	0xbde1a142	-0.110170856
109	0x3e41454c	0.18874091
110	0x3e181311	0.14851023
111	0x3e3d845c	0.18507522
112	0xbe73af80	-0.23797417
113	0x3c924077	0.017853005
114	0xbdba74e4	-0.09104326
115	0x3e48ff2a	0.19628587
116	0x3e24edf4	0.16106397
117	0xbde69b39	-0.11260075
118	0xbd62dcdf	-0.05538642
119	0x3e7c7097	0.24652325
120	0x3e3cfdab	0.18456142
121	0x3db0a7fa	0.08625789
122	0x3d486de0	0.04893291
123	0x3d348127	0.04406848
124	0xbdc4d65d	-0.09611199
125	0xbd7ebf35	-0.062194068
126	0x3d3dc1f6	0.046327554
127	0x3cd38963	0.025822347
128	0xbcb1cc4c	-0.021703862
129	0x3ccaf92b	0.024777016
130	0x3e699a83	0.22812848
131	0x3dae9dab	0.085261665
132	0x3d8d7b26	0.06908254
133	0xbd288378	-0.041141003
134	0xbe8d6367	-0.276149
135	0xbdbb4b7b	-0.09145256
136	0x3e335790	0.17513871
137	0xbca85cde	-0.020552095
138	0x3b7310fc	0.003708898
139	0xbc8d6864	-0.017261691
140	0x3daebcde	0.08532117
141	0xbe45b577	-0.19307505
142	0x3c1acb7a	0.009447927
143	0x3d3b5cb5	0.04574271
144	0xbe57b64e	-0.21065637
145	0xbdbc1bb0	-0.091849685
146	0x3afd57b2	0.0019328503
147	0xbe951918	-0.29120708
148	0x3d5cdcea	0.053921618
149	0xbe0f805b	-0.14013807
150	0x3dfe1fbe	0.12408398
151	0x3e9a4165	0.30128017
152	0xbdf35aa0	-0.1188252
153	0x3e0ceecf	0.13762973
154	0x3d87a181	0.06622601
155	0xbd560091	-0.052246634
156	0x3d1d3b90	0.03838688
157	0xbd90888d	-0.07057295
158	0x3e1368dc	0.1439547
159	0x3e342d50	0.1759541
160	0xbe04802a	-0.12939516
161	0x3de5a134	0.11212388
162	0xbd3a29d3	-0.045450043
163	0xbdac7a42	-0.08421756
164	0x3e8b7721	0.27239326
165	0xbdf4f56c	-0.11960873
166	0x3e187ce9	0.148914
167	0x3cde6d98	0.027151868
168	0xbea6a0df	-0.3254461
169	0xbda92db8	-0.08260673
170	0x3e17cd0c	0.14824313
171	0xbe99f7ba	-0.30071813
172	0x3e9d08cb	0.3067077
173	0xbe232ab4	-0.15934259
174	0x3e3335fc	0.17501062
175	0x3e0b991f	0.1363263
176	0xbe3521e2	-0.17688707
177	0xbe83769f	-0.25676438
178	0x3df75335	0.12076417
179	0x3e49d4d2	0.19710091
180	0xbd20f68c	-0.039297625
181	0x3e5aa0ff	0.21350478
182	0x3e5d1cf1	0.21593072
183	0x3d4090b2	0.047012992
184	0x3e3a51b0	0.18195224
185	0x3d82ea33	0.06392326
186	0xbcf60b41	-0.030034663
187	0xbe26d814	-0.16293365
188	0x3b8ba5e1	0.0042617177
189	0x3d73692d	0.059426475
190	0xbdb7bbdb	-0.089713775
191	0x3d7b1804	0.0613022
192	0xba4b9231	-0.00077656197
193	0xbdb087aa	-0.08619626
194	0xbdeebc5c	-0.116570204
195	0x3e9702d5	0.29494348
196	0xbd8935e1	-0.0669973
197	0x3cf93407	0.030420316
198	0x3ccd44a2	0.02505714
199	0xbe73b826	-0.23800716
200	0x3b3e62d9	0.0029050617
201	0x3d7d6636	0.061865054
202	0x3e7e8cbe	0.24858376
203	0x3d1b7642	0.037954576
204	0xbdf1debf	-0.118100636
205	0x3cc45945	0.023968348
206	0xbb389a4e	-0.0028168145
207	0xbe004024	-0.12524468
208	0xbd10016f	-0.035157617
209	0xbd76d35a	-0.060260154
210	0xbe34b4e2	-0.17647126
211	0x3e5de07b	0.21667664
212	0x3d1cddbb	0.038297396
213	0x3d40fb72	0.047114797
214	0xbd64fd96	-0.0559059
215	0x3ace3a7f	0.0015733986
216	0xbe4b809e	-0.19873282
217	0x3e06bf9e	0.13159034
218	0xbb87ed75	-0.00414818
219	0xbce2dfc0	-0.027694583
220	0xbd3d7394	-0.046252802
221	0x3df9b92a	0.1219352
222	0xbdaca59a	-0.084300235
223	0xbe790572	-0.24318483
224	0x3e8b8210	0.27247667
225	0xbc10eba3	-0.008845243
226	0x3e30625d	0.17225023
227	0xbe8e51e1	-0.27796844
228	0xbdcbe587	-0.09955888
229	0xbc9c5cb1	-0.019087167
230	0x39eb6b5d	0.00044902685
231	0x3d99eac4	0.07515481
232	0x3dac2017	0.08404558
233	0xbe2b23be	-0.16712853
234	0x3e0151ba	0.12628832
235	0x3d8fdb7e	0.07024287
236	0x3d69f1dc	0.05711542
237	0xbd831188	-0.06399828
238	0x3d291ff8	0.041290253
239	0x3c57265b	0.013131703
240	0xbdaa5dfa	-0.08318706
241	0xbe1eb6fb	-0.15499489
242	0x3dc04754	0.09388605
243	0xbd294601	-0.041326527
244	0x3e028a71	0.12748124
245	0x3cf32239	0.029679405
246	0xbe6219b3	-0.22080116
247	0xbde15763	-0.11002996
248	0x3e5ea568	0.21742785
249	0xbdb8b5f1	-0.090190776
250	0xbe9b2ff0	-0.3031001
251	0xbd2636aa	-0.040579475
252	0x3ed667f4	0.41876185
253	0xbdb0eaf3	-0.08638563
254	0x3d86e0b5	0.06585828
255	0x3e8e3e50	0.27781916

actor.4.bias f4 [128]
0	0xbdf802eb	-0.121099316
1	0xbe600213	-0.21875791
2	0xbcd65ce4	-0.02616734
3	0xbe30938e	-0.17243788
4	0xbdec9ca8	-0.11553317
5	0xbe04eee2	-0.12981752
6	0xbdb41a9a	-0.08794136
7	0xbe8a7b2e	-0.27047104
8	0xbde1ae2a	-0.11019547
9	0x3d15d49c	0.036579713
10	0xbe295f3a	-0.16540232
11	0xbdaa5217	-0.08316439
12	0xbe6a970a	-0.2290918
13	0xbd92a9ae	-0.0716127
14	0xbe270931	-0.163121
15	0xbe5a6cb7	-0.21330534
16	0xbda03034	-0.07821694
17	0xbd9e5cd8	-0.07732552
18	0xbe884d96	-0.26621693
19	0xbe3751a4	-0.17902237
20	0xbe8fe4b3	-0.2810417
21	0x3a99cadc	0.001173343
22	0xbe9c59f6	-0.30537385
23	0xbdd7a5a4	-0.1052964
24	0xbddcc64d	-0.1078001
25	0xbdd6709a	-0.10470696
26	0xbe52dab1	-0.20591237
27	0xbe7f5105	-0.2493325
28	0xbd962c25	-0.07332639
29	0xbe7858fc	-0.24252695
30	0xbe0df1ec	-0.13861817
31	0xbd8c6156	-0.06854503
32	0xbe0b0859	-0.13577403
33	0xbe3db9d9	-0.18527927
34	0xbd77a561	-0.060460452
35	0xbe62a5b5	-0.22133525
36	0xbd9a2888	-0.07527262
37	0xbe6815cc	-0.22664565
38	0x3da874e9	0.08225424
39	0xbe4f0410	-0.20216393
40	0xbe9a926d	-0.3018984
41	0x3d7481c3	0.059694063
42	0xbe56b281	-0.20966531
43	0xbea6258e	-0.32450527
44	0xbe90ffe2	-0.28320223
45	0xbe3efdde	-0.1865153
46	0xbde85c89	-0.11345775
47	0xbe74993a	-0.23886576
48	0xbead022f	-0.33790728
49	0xbe310eb7	-0.1729077
50	0xbd29a982	-0.04142142
51	0xbc9772bd	-0.018487329
52	0xbd8e8b39	-0.06960148
53	0xbe0766d5	-0.13222821
54	0xbe85378a	-0.26018935
55	0xbe06f248	-0.1317836
56	0xbda6ea23	-0.08150127
57	0xbd091c07	-0.033473995
58	0xbe70d834	-0.23519975
59	0xbcd6e774	-0.026233412
60	0xbe9e6ea0	-0.30943775
61	0xbdb7b65c	-0.08970329
62	0xbe993c82	-0.29928976
63	0xbd8446b2	-0.064587966
64	0xbe6bc733	-0.23025207
65	0xbde314b9	-0.11087937
66	0xbe04b5d3	-0.12959985
67	0xbe4e900f	-0.20172141
68	0xbca2e06e	-0.019882407
69	0xbd0ce239	-0.03439543
70	0xbeae4017	-0.34033272
71	0xbe95b378	-0.29238486
72	0xbecee405	-0.4040834
73	0xbf4a4b27	-0.79020923
74	0xbe7e0f19	-0.24810447
75	0xbe8505a0	-0.25980854
76	0xbebacf59	-0.3648632
77	0xbd92089d	-0.07130549
78	0xbee38098	-0.44434047
79	0xbe99f6e7	-0.30071184
80	0xbe87b86b	-0.26507887
81	0xbe83017c	-0.2558707
82	0xbe45c359	-0.193128
83	0xbdd1d251	-0.10245193
84	0xbe05925f	-0.13044117
85	0xbd37694c	-0.044778153
86	0xbe2bea76	-0.16788658
87	0xbe517b54	-0.20457202
88	0xbe3e62b7	-0.18592344
89	0xbcdc9306	-0.026925575
90	0xbe0d5c3b	-0.13804714
91	0xbe46881d	-0.1938786
92	0xbe354f4c	-0.1770603
93	0xbd8d7fd1	-0.06909145
94	0xbe852db5	-0.26011434
95	0xbf088cf2	-0.53340065
96	0xbf244e6f	-0.6418218
97	0xbd11c4bb	-0.035588007
98	0xbe10df06	-0.14147577
99	0xbe807428	-0.2508862
100	0xbd6e759c	-0.05821763
101	0xbe8159c3	-0.25263795
102	0xbd657ed5	-0.05602916
103	0xbe4554ee	-0.1927068
104	0xbea4cc9e	-0.3218736
105	0xbe5814d5	-0.21101697
106	0xbdff96cf	-0.12479936
107	0xbe830904	-0.25592816
108	0xbe409b5d	-0.18809266
109	0xbe90b3c1	-0.2826214
110	0xbeacb91d	-0.3373498
111	0xbe75b884	-0.23996168
112	0xbe7d5e18	-0.24742925
113	0xbb93786b	-0.004500439
114	0xbe411eaa	-0.18859354
115	0xbdeb8406	-0.11499791
116	0xbe3f63c7	-0.18690406
117	0xbd3e7a39	-0.04650328
118	0xbe9394c6	-0.28824443
119	0xbe4c0898	-0.19925153
120	0xbe6b1182	-0.22955897
121	0xbde387b2	-0.11109866
122	0xbda82fef	-0.082122676
123	0xbe195ec9	-0.14977564
124	0xbeab3517	-0.33438942
125	0xbd8b26d4	-0.06794515
126	0xbe2a0178	-0.16602123
127	0xbc80c1fe	-0.015717503

actor.6.weight f4 [12, 128]
0	0x3c499732	0.012304114
1	0x3b16fb84	0.0023038099
2	0x3be655e3	0.0070292815
3	0xbd03185e	-0.03200566
4	0xbaf054d3	-0.0018335826
5	0xbda34321	-0.07971788
6	0x3d5ac529	0.053410683
7	0xbd5b2242	-0.053499468
8	0xbd7573e9	-0.059924994
9	0x3c8ee197	0.017441554
10	0xbd4c943a	-0.049946047
11	0xbc0713d7	-0.008244476
12	0x3c232222	0.009956868
13	0x3c2086e6	0.009797787
14	0x3ad62c01	0.0016340018
15	0x3d501d4f	0.0508092
16	0x3c9b81a3	0.018982714
17	0xbaec7b91	-0.0018042197
18	0x3c968ce6	0.018377732
19	0x3d4c32aa	0.049853005
20	0xbd1bbb83	-0.038020622
21	0x3a902bd9	0.0010999396
22	0xbd072e8a	-0.033003367
23	0x3d847c0a	0.06468971
24	0xbdbf8d35	-0.09353105
25	0xbd852ff4	-0.06503287
26	0x3d7bc2af	0.06146496
27	0xbc9c6421	-0.019090714
28	0xbc63a60d	-0.01389457
29	0xbd2105cf	-0.03931218
30	0xbbb2cce3	-0.0054565533
31	0x3d48735a	0.048938133
32	0xbdd1091c	-0.102068156
33	0x3ceb603e	0.028732415
34	0x3d131629	0.035909805
35	0xbd5d01a5	-0.053956646
36	0xbd0d0662	-0.034429915
37	0x3d1cf4f0	0.038319528
38	0x3d09c42d	0.033634353
39	0xbba1010a	-0.004913454
40	0xbd4bc6ef	-0.049750265
41	0xbd1c9f00	-0.03823757
42	0x3bc67103	0.0060559525
43	0xbdbc8083	-0.09204199
44	0xbd1fe7cd	-0.03903942
45	0x3d478fe3	0.048721205
46	0x3b468589	0.0030291995
47	0xbc7919d7	-0.015203915
48	0x3c3bad21	0.011454851
49	0xbcfc9d3f	-0.0308367
50	0xbca5c670	-0.020236224
51	0x3d9a919c	0.07547304
52	0xbd1b10b0	-0.03785771
53	0x3db3fae9	0.08788092
54	0x3d17eb59	0.03708968
55	0x3a72b048	0.00092578353
56	0x3c9365d6	0.017992895
57	0x3c2d347c	0.010571595
58	0xbcff87ce	-0.031192686
59	0x3c84b36a	0.016198833
60	0xbd6738e9	-0.056450758
61	0x3d0ecce4	0.034863368
62	0x3bc65e79	0.0060537425
63	0x3d3e23d7	0.0464209
64	0x3b84663d	0.004040508
65	0xbd4a015b	-0.0493177
66	0xbcfc4702	-0.030795578
67	0xbcb6c401	-0.022310259
68	0x3dc091c2	0.09402801
69	0x3c2b688b	0.010461937
70	0x3e040aa2	0.12894681
71	0x3d2b162b	0.041769188
72	0x3b4cacce	0.003123093
73	0xbd06199f	-0.032739278
74	0x3c0a0700	0.0084245205
75	0xbb5f8927	-0.0034108849
76	0x3e0d1b95	0.13780053
77	0xbdbfe91d	-0.09370635
78	0x3d1a4e7e	0.037672512
79	0x3c941c4a	0.018079896
80	0x3cf9ee8a	0.030509252
81	0x3b9627c2	0.004582376
82	0xbcf85e81	-0.0303185
83	0x3d129787	0.03578904
84	0xbb898da2	-0.004197792
85	0x3c71ee5e	0.014766304
86	0x3d6ee447	0.05832317
87	0x3df718de	0.1206529
88	0xbca6295c	-0.020283394
89	0x3d0c9a2e	0.034326725
90	0xbccef861	-0.02526492
91	0x3bb7eba5	0.005612808
92	0xbd75e80a	-0.060035743
93	0x3d0edc07	0.034877803
94	0x3ccc454f	0.024935393
95	0xbd6c4855	-0.05768617
96	0x3bfe32d5	0.0077575245
97	0x3d8b4097	0.06799429
98	0x3c3eba9a	0.011641169
99	0xbddfe18a	-0.1093169
100	0xbcf7c5f9	-0.030245768
101	0x3b03612a	0.0020046928
102	0xbc6ec5ac	-0.014573496
103	0x3c1a77c2	0.009427967
104	0x3cf83b2b	0.030301651
105	0x3cbbffe0	0.02294916
106	0x3d5b8975	0.053597886
107	0xbb6c1ab8	-0.0036026668
108	0xbd6904c1	-0.0568893
109	0x3db8b855	0.090195335
110	0xbb0a9765	-0.0021147367
111	0xbdf4d33e	-0.11954354
112	0xbcc621a5	-0.024185965
113	0xbd5ebbc9	-0.054378305
114	0xbbdd079d	-0.0067452923
115	0x3b6ff432	0.0036614058
116	0xbbdbfa05	-0.0067131543
117	0xbd461919	-0.04836378
118	0xbd529519	-0.05141172
119	0x3c8ac1af	0.016938059
120	0x3c98eaba	0.018666614
121	0xbcc39f13	-0.023879563
122	0x3c1b11f7	0.009464732
123	0x3bd46b57	0.0064825225
124	0xbcb41c39	-0.021986114
125	0x3d18a0fc	0.0372629
126	0x3d0d128c	0.034441516
127	0xbd52137e	-0.05128812
128	0xbdb34a73	-0.087544344
129	0x3c9757f9	0.018474566
130	0xbca280b6	-0.019836765
131	0x3d3c712b	0.046006363
132	0x3c5cd3e3	0.013478252
133	0xbd917c80	-0.071038246
134	0xbce46a9c	-0.027882867
135	0xbda0a33e	-0.07843636
136	0x3b209580	0.0024503171
137	0x3cb388f4	0.02191589
138	0xbc0a466e	-0.008439643
139	0x3d10f9fe	0.03539466
140	0xbcfeae58	-0.031088993
141	0x3d8fa2ac	0.07013449
142	0x3c92cdb9	0.017920362
143	0xbb1925d9	-0.0023368506
144	0x3df34bd2	0.11879696
145	0xbad98fb6	-0.0016598615
146	0x3c33c49b	0.010972167
147	0x3c90d172	0.017677996
148	0x3cf9befb	0.030486574
149	0xbcefeee2	-0.029288713
150	0xbca28c73	-0.019842362
151	0xbc5c4bad	-0.013445777
152	0xbd78056c	-0.060552046
153	0xbd91af43	-0.07113507
154	0xbd34581a	-0.044029333
155	0xbd199ac2	-0.037501104
156	0xbc95406f	-0.0182192
157	0xbd565a3c	-0.052332148
158	0x3bfc69b6	0.0077030314
159	0xbbebbc67	-0.00719409
160	0xbdb4c546	-0.088266894
161	0xbd63d8d9	-0.055626724
162	0xbbf85264	-0.007578181
163	0xbca9a624	-0.020709105
164	0x3d8f15ef	0.069866054
165	0xbced15af	-0.028941004
166	0x3bbab181	0.0056974296
167	0x3c2b79a2	0.010466011
168	0xbc84d088	-0.016212717
169	0x3cb9c721	0.02267796
170	0x3ca9c5fe	0.020724293
171	0xbd9e7a49	-0.07738168
172	0xbc849327	-0.016183449
173	0x3dc45c1f	0.09587883
174	0xbc7dae6f	-0.015483483
175	0x3d5def6e	0.054183416
176	0x3cf244aa	0.029573757
177	0x3b574323	0.0032846413
178	0xbd1523c0	-0.036411047
179	0x3cd6a9e9	0.026204066
180	0xbc65273f	-0.013986408
181	0x3cd75cbe	0.02628934
182	0xbd028ef5	-0.031874616
183	0x3c173fa9	0.009231486
184	0xbcefce5b	-0.029273203
185	0x3d89ab45	0.0672212
186	0xbc96c672	-0.018405173
187	0xbb477772	-0.0030436185
188	0x3d57e752	0.05271084
189	0xbb92b80a	-0.0044775056
190	0xbbfc54ef	-0.0077005546
191	0x3daf8fd6	0.085723564
192	0xbc8fb530	-0.017542452
193	0xbd4438d7	-0.04790577
194	0x3ccbe420	0.024889052
195	0xbd2a1354	-0.04152234
196	0x3db165f4	0.08662024
197	0x3d1e7ca9	0.038693104
198	0x3d6645d2	0.05621893
199	0xbd26ca25	-0.040720124
200	0x3c8d6628	0.017260626
201	0x3a9455a5	0.0011317028
202	0xbd3794bb	-0.044819575
203	0xbd1fe98e	-0.039041094
204	0x3d06fb52	0.03295452
205	0xbd067471	-0.03282589
206	0xbc146354	-0.009056885
207	0xbda3f89f	-0.08006405
208	0x3d455c1e	0.048183553
209	0x3c211d50	0.009833649
210	0x3c580b7f	0.013186335
211	0x3c5e0f5b	0.013553466
212	0xbd6e0da7	-0.05811849
213	0xbab5f464	-0.0013882038
214	0xbd26f88a	-0.04076437
215	0x3d260848	0.04053524
216	0x3cef4609	0.0292082
217	0x3d1badf6	0.0380077
218	0x3cadd1f2	0.021218274
219	0x3cd55c91	0.026045116
220	0x3c6305c8	0.013856359
221	0xbc34318f	-0.010998144
222	0xbc10fd39	-0.0088494355
223	0x3d5629a6	0.052285813
224	0xbc98fa2f	-0.018673984
225	0x3c42773a	0.011869246
226	0x3cadecad	0.02123102
227	0xbd2f5cf4	-0.042813256
228	0xbc4b005f	-0.012390225
229	0xbc58af32	-0.013225364
230	0x3b3b6245	0.0028592509
231	0x3dbe7609	0.09299857
232	0x3d5b6905	0.05356695
233	0xbc84cf2e	-0.016212072
234	0x3d1cca1a	0.038278677
235	0xbd371f15	-0.044707377
236	0xbd516049	-0.051117215
237	0x3cb24d63	0.021765416
238	0x3a95e3d4	0.0011435696
239	0x3d7b17ad	0.061301876
240	0xbb305370	-0.0026905201
241	0xbca46344	-0.020066865
242	0xbcf4c4c0	-0.029878974
243	0xbc7787d6	-0.015108069
244	0x3c3df6b2	0.011594461
245	0xbce7b0aa	-0.028282482
246	0x3c3db8bb	0.011579688
247	0x3c6bb202	0.014385702
248	0xbd2fa098	-0.042877764
249	0x3cc76fd2	0.024345312
250	0x3c982fc4	0.018577464
251	0xbc8bea23	-0.017079419
252	0xbd13b3d6	-0.036060177
253	0x3d3aad7a	0.045575596
254	0x3d52e851	0.051491085
255	0xbd185146	-0.037186883

actor.6.bias f4 [12]
0	0x3e5b51c8	0.21417916
1	0x3dc9d561	0.09855152
2	0xbe1cc4fa	-0.15309516
3	0x3cf03a2c	0.029324614
4	0x3e175e3b	0.1478204
5	0xbe1fafe1	-0.15594436
6	0xbe0fd569	-0.14046253
7	0xbe4a93a3	-0.19782881
8	0xbe000b73	-0.12504368
9	0xbc1f6317	-0.009728215
10	0x3e3b7dd5	0.1830972
11	0x3e363dd5	0.17797025
